{"format": "graph-model", "generatedBy": "2.6.0", "convertedBy": "TensorFlow.js Converter v3.13.0", "signature": {"inputs": {"input": {"name": "input:0", "dtype": "DT_FLOAT", "tensorShape": {"dim": [{"size": "-1"}, {"size": "-1"}, {"size": "-1"}, {"size": "3"}]}}}, "outputs": {"output_0": {"name": "Identity:0", "dtype": "DT_FLOAT", "tensorShape": {"dim": [{"size": "-1"}, {"size": "12"}]}}}}, "modelTopology": {"node": [{"name": "StatefulPartitionedCall/model_1/efficientnetb0/block6d_se_squeeze/Mean/reduction_indices", "op": "Const", "attr": {"value": {"tensor": {"dtype": "DT_INT32", "tensorShape": {"dim": [{"size": "2"}]}}}, "dtype": {"type": "DT_INT32"}}}, {"name": "StatefulPartitionedCall/model_1/efficientnetb0/block6d_se_reshape/strided_slice/stack", "op": "Const", "attr": {"dtype": {"type": "DT_INT32"}, "value": {"tensor": {"dtype": "DT_INT32", "tensorShape": {"dim": [{"size": "1"}]}}}}}, {"name": "StatefulPartitionedCall/model_1/efficientnetb0/block6d_se_reshape/strided_slice/stack_1", "op": "Const", "attr": {"value": {"tensor": {"dtype": "DT_INT32", "tensorShape": {"dim": [{"size": "1"}]}}}, "dtype": {"type": "DT_INT32"}}}, {"name": "StatefulPartitionedCall/model_1/efficientnetb0/block6d_se_reshape/strided_slice/stack_2", "op": "Const", "attr": {"value": {"tensor": {"dtype": "DT_INT32", "tensorShape": {"dim": [{"size": "1"}]}}}, "dtype": {"type": "DT_INT32"}}}, {"name": "StatefulPartitionedCall/model_1/efficientnetb0/block6d_se_reshape/Reshape/shape/1", "op": "Const", "attr": {"dtype": {"type": "DT_INT32"}, "value": {"tensor": {"dtype": "DT_INT32", "tensorShape": {}}}}}, {"name": "StatefulPartitionedCall/model_1/efficientnetb0/block6d_se_reshape/Reshape/shape/2", "op": "Const", "attr": {"dtype": {"type": "DT_INT32"}, "value": {"tensor": {"dtype": "DT_INT32", "tensorShape": {}}}}}, {"name": "StatefulPartitionedCall/model_1/efficientnetb0/block6d_se_reshape/Reshape/shape/3", "op": "Const", "attr": {"value": {"tensor": {"dtype": "DT_INT32", "tensorShape": {}}}, "dtype": {"type": "DT_INT32"}}}, {"name": "StatefulPartitionedCall/model_1/efficientnetb0/block6d_se_reduce/Conv2D/ReadVariableOp", "op": "Const", "attr": {"dtype": {"type": "DT_FLOAT"}, "value": {"tensor": {"dtype": "DT_FLOAT", "tensorShape": {"dim": [{"size": "1"}, {"size": "1"}, {"size": "1152"}, {"size": "48"}]}}}}}, {"name": "StatefulPartitionedCall/model_1/efficientnetb0/block6d_se_reduce/BiasAdd/ReadVariableOp", "op": "Const", "attr": {"value": {"tensor": {"dtype": "DT_FLOAT", "tensorShape": {"dim": [{"size": "48"}]}}}, "dtype": {"type": "DT_FLOAT"}}}, {"name": "StatefulPartitionedCall/model_1/efficientnetb0/block6d_se_expand/Conv2D/ReadVariableOp", "op": "Const", "attr": {"value": {"tensor": {"dtype": "DT_FLOAT", "tensorShape": {"dim": [{"size": "1"}, {"size": "1"}, {"size": "48"}, {"size": "1152"}]}}}, "dtype": {"type": "DT_FLOAT"}}}, {"name": "StatefulPartitionedCall/model_1/efficientnetb0/block6d_se_expand/BiasAdd/ReadVariableOp", "op": "Const", "attr": {"dtype": {"type": "DT_FLOAT"}, "value": {"tensor": {"dtype": "DT_FLOAT", "tensorShape": {"dim": [{"size": "1152"}]}}}}}, {"name": "StatefulPartitionedCall/model_1/efficientnetb0/block6c_se_squeeze/Mean/reduction_indices", "op": "Const", "attr": {"value": {"tensor": {"dtype": "DT_INT32", "tensorShape": {"dim": [{"size": "2"}]}}}, "dtype": {"type": "DT_INT32"}}}, {"name": "StatefulPartitionedCall/model_1/efficientnetb0/block6c_se_reshape/strided_slice/stack", "op": "Const", "attr": {"dtype": {"type": "DT_INT32"}, "value": {"tensor": {"dtype": "DT_INT32", "tensorShape": {"dim": [{"size": "1"}]}}}}}, {"name": "StatefulPartitionedCall/model_1/efficientnetb0/block6c_se_reshape/strided_slice/stack_1", "op": "Const", "attr": {"dtype": {"type": "DT_INT32"}, "value": {"tensor": {"dtype": "DT_INT32", "tensorShape": {"dim": [{"size": "1"}]}}}}}, {"name": "StatefulPartitionedCall/model_1/efficientnetb0/block6c_se_reshape/strided_slice/stack_2", "op": "Const", "attr": {"value": {"tensor": {"dtype": "DT_INT32", "tensorShape": {"dim": [{"size": "1"}]}}}, "dtype": {"type": "DT_INT32"}}}, {"name": "StatefulPartitionedCall/model_1/efficientnetb0/block6c_se_reshape/Reshape/shape/1", "op": "Const", "attr": {"dtype": {"type": "DT_INT32"}, "value": {"tensor": {"dtype": "DT_INT32", "tensorShape": {}}}}}, {"name": "StatefulPartitionedCall/model_1/efficientnetb0/block6c_se_reshape/Reshape/shape/2", "op": "Const", "attr": {"dtype": {"type": "DT_INT32"}, "value": {"tensor": {"dtype": "DT_INT32", "tensorShape": {}}}}}, {"name": "StatefulPartitionedCall/model_1/efficientnetb0/block6c_se_reshape/Reshape/shape/3", "op": "Const", "attr": {"dtype": {"type": "DT_INT32"}, "value": {"tensor": {"dtype": "DT_INT32", "tensorShape": {}}}}}, {"name": "StatefulPartitionedCall/model_1/efficientnetb0/block6c_se_reduce/Conv2D/ReadVariableOp", "op": "Const", "attr": {"dtype": {"type": "DT_FLOAT"}, "value": {"tensor": {"dtype": "DT_FLOAT", "tensorShape": {"dim": [{"size": "1"}, {"size": "1"}, {"size": "1152"}, {"size": "48"}]}}}}}, {"name": "StatefulPartitionedCall/model_1/efficientnetb0/block6c_se_reduce/BiasAdd/ReadVariableOp", "op": "Const", "attr": {"value": {"tensor": {"dtype": "DT_FLOAT", "tensorShape": {"dim": [{"size": "48"}]}}}, "dtype": {"type": "DT_FLOAT"}}}, {"name": "StatefulPartitionedCall/model_1/efficientnetb0/block6c_se_expand/Conv2D/ReadVariableOp", "op": "Const", "attr": {"dtype": {"type": "DT_FLOAT"}, "value": {"tensor": {"dtype": "DT_FLOAT", "tensorShape": {"dim": [{"size": "1"}, {"size": "1"}, {"size": "48"}, {"size": "1152"}]}}}}}, {"name": "StatefulPartitionedCall/model_1/efficientnetb0/block6c_se_expand/BiasAdd/ReadVariableOp", "op": "Const", "attr": {"value": {"tensor": {"dtype": "DT_FLOAT", "tensorShape": {"dim": [{"size": "1152"}]}}}, "dtype": {"type": "DT_FLOAT"}}}, {"name": "StatefulPartitionedCall/model_1/efficientnetb0/block6b_se_squeeze/Mean/reduction_indices", "op": "Const", "attr": {"dtype": {"type": "DT_INT32"}, "value": {"tensor": {"dtype": "DT_INT32", "tensorShape": {"dim": [{"size": "2"}]}}}}}, {"name": "StatefulPartitionedCall/model_1/efficientnetb0/block6b_se_reshape/strided_slice/stack", "op": "Const", "attr": {"dtype": {"type": "DT_INT32"}, "value": {"tensor": {"dtype": "DT_INT32", "tensorShape": {"dim": [{"size": "1"}]}}}}}, {"name": "StatefulPartitionedCall/model_1/efficientnetb0/block6b_se_reshape/strided_slice/stack_1", "op": "Const", "attr": {"dtype": {"type": "DT_INT32"}, "value": {"tensor": {"dtype": "DT_INT32", "tensorShape": {"dim": [{"size": "1"}]}}}}}, {"name": "StatefulPartitionedCall/model_1/efficientnetb0/block6b_se_reshape/strided_slice/stack_2", "op": "Const", "attr": {"dtype": {"type": "DT_INT32"}, "value": {"tensor": {"dtype": "DT_INT32", "tensorShape": {"dim": [{"size": "1"}]}}}}}, {"name": "StatefulPartitionedCall/model_1/efficientnetb0/block6b_se_reshape/Reshape/shape/1", "op": "Const", "attr": {"value": {"tensor": {"dtype": "DT_INT32", "tensorShape": {}}}, "dtype": {"type": "DT_INT32"}}}, {"name": "StatefulPartitionedCall/model_1/efficientnetb0/block6b_se_reshape/Reshape/shape/2", "op": "Const", "attr": {"value": {"tensor": {"dtype": "DT_INT32", "tensorShape": {}}}, "dtype": {"type": "DT_INT32"}}}, {"name": "StatefulPartitionedCall/model_1/efficientnetb0/block6b_se_reshape/Reshape/shape/3", "op": "Const", "attr": {"value": {"tensor": {"dtype": "DT_INT32", "tensorShape": {}}}, "dtype": {"type": "DT_INT32"}}}, {"name": "StatefulPartitionedCall/model_1/efficientnetb0/block6b_se_reduce/Conv2D/ReadVariableOp", "op": "Const", "attr": {"dtype": {"type": "DT_FLOAT"}, "value": {"tensor": {"dtype": "DT_FLOAT", "tensorShape": {"dim": [{"size": "1"}, {"size": "1"}, {"size": "1152"}, {"size": "48"}]}}}}}, {"name": "StatefulPartitionedCall/model_1/efficientnetb0/block6b_se_reduce/BiasAdd/ReadVariableOp", "op": "Const", "attr": {"value": {"tensor": {"dtype": "DT_FLOAT", "tensorShape": {"dim": [{"size": "48"}]}}}, "dtype": {"type": "DT_FLOAT"}}}, {"name": "StatefulPartitionedCall/model_1/efficientnetb0/block6b_se_expand/Conv2D/ReadVariableOp", "op": "Const", "attr": {"value": {"tensor": {"dtype": "DT_FLOAT", "tensorShape": {"dim": [{"size": "1"}, {"size": "1"}, {"size": "48"}, {"size": "1152"}]}}}, "dtype": {"type": "DT_FLOAT"}}}, {"name": "StatefulPartitionedCall/model_1/efficientnetb0/block6b_se_expand/BiasAdd/ReadVariableOp", "op": "Const", "attr": {"value": {"tensor": {"dtype": "DT_FLOAT", "tensorShape": {"dim": [{"size": "1152"}]}}}, "dtype": {"type": "DT_FLOAT"}}}, {"name": "StatefulPartitionedCall/model_1/efficientnetb0/block5c_se_squeeze/Mean/reduction_indices", "op": "Const", "attr": {"dtype": {"type": "DT_INT32"}, "value": {"tensor": {"dtype": "DT_INT32", "tensorShape": {"dim": [{"size": "2"}]}}}}}, {"name": "StatefulPartitionedCall/model_1/efficientnetb0/block5c_se_reshape/strided_slice/stack", "op": "Const", "attr": {"dtype": {"type": "DT_INT32"}, "value": {"tensor": {"dtype": "DT_INT32", "tensorShape": {"dim": [{"size": "1"}]}}}}}, {"name": "StatefulPartitionedCall/model_1/efficientnetb0/block5c_se_reshape/strided_slice/stack_1", "op": "Const", "attr": {"dtype": {"type": "DT_INT32"}, "value": {"tensor": {"dtype": "DT_INT32", "tensorShape": {"dim": [{"size": "1"}]}}}}}, {"name": "StatefulPartitionedCall/model_1/efficientnetb0/block5c_se_reshape/strided_slice/stack_2", "op": "Const", "attr": {"dtype": {"type": "DT_INT32"}, "value": {"tensor": {"dtype": "DT_INT32", "tensorShape": {"dim": [{"size": "1"}]}}}}}, {"name": "StatefulPartitionedCall/model_1/efficientnetb0/block5c_se_reshape/Reshape/shape/1", "op": "Const", "attr": {"dtype": {"type": "DT_INT32"}, "value": {"tensor": {"dtype": "DT_INT32", "tensorShape": {}}}}}, {"name": "StatefulPartitionedCall/model_1/efficientnetb0/block5c_se_reshape/Reshape/shape/2", "op": "Const", "attr": {"value": {"tensor": {"dtype": "DT_INT32", "tensorShape": {}}}, "dtype": {"type": "DT_INT32"}}}, {"name": "StatefulPartitionedCall/model_1/efficientnetb0/block5c_se_reshape/Reshape/shape/3", "op": "Const", "attr": {"value": {"tensor": {"dtype": "DT_INT32", "tensorShape": {}}}, "dtype": {"type": "DT_INT32"}}}, {"name": "StatefulPartitionedCall/model_1/efficientnetb0/block5c_se_reduce/Conv2D/ReadVariableOp", "op": "Const", "attr": {"dtype": {"type": "DT_FLOAT"}, "value": {"tensor": {"dtype": "DT_FLOAT", "tensorShape": {"dim": [{"size": "1"}, {"size": "1"}, {"size": "672"}, {"size": "28"}]}}}}}, {"name": "StatefulPartitionedCall/model_1/efficientnetb0/block5c_se_reduce/BiasAdd/ReadVariableOp", "op": "Const", "attr": {"value": {"tensor": {"dtype": "DT_FLOAT", "tensorShape": {"dim": [{"size": "28"}]}}}, "dtype": {"type": "DT_FLOAT"}}}, {"name": "StatefulPartitionedCall/model_1/efficientnetb0/block5c_se_expand/Conv2D/ReadVariableOp", "op": "Const", "attr": {"value": {"tensor": {"dtype": "DT_FLOAT", "tensorShape": {"dim": [{"size": "1"}, {"size": "1"}, {"size": "28"}, {"size": "672"}]}}}, "dtype": {"type": "DT_FLOAT"}}}, {"name": "StatefulPartitionedCall/model_1/efficientnetb0/block5c_se_expand/BiasAdd/ReadVariableOp", "op": "Const", "attr": {"value": {"tensor": {"dtype": "DT_FLOAT", "tensorShape": {"dim": [{"size": "672"}]}}}, "dtype": {"type": "DT_FLOAT"}}}, {"name": "StatefulPartitionedCall/model_1/efficientnetb0/block5b_se_squeeze/Mean/reduction_indices", "op": "Const", "attr": {"dtype": {"type": "DT_INT32"}, "value": {"tensor": {"dtype": "DT_INT32", "tensorShape": {"dim": [{"size": "2"}]}}}}}, {"name": "StatefulPartitionedCall/model_1/efficientnetb0/block5b_se_reshape/strided_slice/stack", "op": "Const", "attr": {"dtype": {"type": "DT_INT32"}, "value": {"tensor": {"dtype": "DT_INT32", "tensorShape": {"dim": [{"size": "1"}]}}}}}, {"name": "StatefulPartitionedCall/model_1/efficientnetb0/block5b_se_reshape/strided_slice/stack_1", "op": "Const", "attr": {"value": {"tensor": {"dtype": "DT_INT32", "tensorShape": {"dim": [{"size": "1"}]}}}, "dtype": {"type": "DT_INT32"}}}, {"name": "StatefulPartitionedCall/model_1/efficientnetb0/block5b_se_reshape/strided_slice/stack_2", "op": "Const", "attr": {"value": {"tensor": {"dtype": "DT_INT32", "tensorShape": {"dim": [{"size": "1"}]}}}, "dtype": {"type": "DT_INT32"}}}, {"name": "StatefulPartitionedCall/model_1/efficientnetb0/block5b_se_reshape/Reshape/shape/1", "op": "Const", "attr": {"dtype": {"type": "DT_INT32"}, "value": {"tensor": {"dtype": "DT_INT32", "tensorShape": {}}}}}, {"name": "StatefulPartitionedCall/model_1/efficientnetb0/block5b_se_reshape/Reshape/shape/2", "op": "Const", "attr": {"value": {"tensor": {"dtype": "DT_INT32", "tensorShape": {}}}, "dtype": {"type": "DT_INT32"}}}, {"name": "StatefulPartitionedCall/model_1/efficientnetb0/block5b_se_reshape/Reshape/shape/3", "op": "Const", "attr": {"dtype": {"type": "DT_INT32"}, "value": {"tensor": {"dtype": "DT_INT32", "tensorShape": {}}}}}, {"name": "StatefulPartitionedCall/model_1/efficientnetb0/block5b_se_reduce/Conv2D/ReadVariableOp", "op": "Const", "attr": {"value": {"tensor": {"dtype": "DT_FLOAT", "tensorShape": {"dim": [{"size": "1"}, {"size": "1"}, {"size": "672"}, {"size": "28"}]}}}, "dtype": {"type": "DT_FLOAT"}}}, {"name": "StatefulPartitionedCall/model_1/efficientnetb0/block5b_se_reduce/BiasAdd/ReadVariableOp", "op": "Const", "attr": {"dtype": {"type": "DT_FLOAT"}, "value": {"tensor": {"dtype": "DT_FLOAT", "tensorShape": {"dim": [{"size": "28"}]}}}}}, {"name": "StatefulPartitionedCall/model_1/efficientnetb0/block5b_se_expand/Conv2D/ReadVariableOp", "op": "Const", "attr": {"dtype": {"type": "DT_FLOAT"}, "value": {"tensor": {"dtype": "DT_FLOAT", "tensorShape": {"dim": [{"size": "1"}, {"size": "1"}, {"size": "28"}, {"size": "672"}]}}}}}, {"name": "StatefulPartitionedCall/model_1/efficientnetb0/block5b_se_expand/BiasAdd/ReadVariableOp", "op": "Const", "attr": {"dtype": {"type": "DT_FLOAT"}, "value": {"tensor": {"dtype": "DT_FLOAT", "tensorShape": {"dim": [{"size": "672"}]}}}}}, {"name": "StatefulPartitionedCall/model_1/efficientnetb0/block4c_se_squeeze/Mean/reduction_indices", "op": "Const", "attr": {"dtype": {"type": "DT_INT32"}, "value": {"tensor": {"dtype": "DT_INT32", "tensorShape": {"dim": [{"size": "2"}]}}}}}, {"name": "StatefulPartitionedCall/model_1/efficientnetb0/block4c_se_reshape/strided_slice/stack", "op": "Const", "attr": {"value": {"tensor": {"dtype": "DT_INT32", "tensorShape": {"dim": [{"size": "1"}]}}}, "dtype": {"type": "DT_INT32"}}}, {"name": "StatefulPartitionedCall/model_1/efficientnetb0/block4c_se_reshape/strided_slice/stack_1", "op": "Const", "attr": {"dtype": {"type": "DT_INT32"}, "value": {"tensor": {"dtype": "DT_INT32", "tensorShape": {"dim": [{"size": "1"}]}}}}}, {"name": "StatefulPartitionedCall/model_1/efficientnetb0/block4c_se_reshape/strided_slice/stack_2", "op": "Const", "attr": {"value": {"tensor": {"dtype": "DT_INT32", "tensorShape": {"dim": [{"size": "1"}]}}}, "dtype": {"type": "DT_INT32"}}}, {"name": "StatefulPartitionedCall/model_1/efficientnetb0/block4c_se_reshape/Reshape/shape/1", "op": "Const", "attr": {"dtype": {"type": "DT_INT32"}, "value": {"tensor": {"dtype": "DT_INT32", "tensorShape": {}}}}}, {"name": "StatefulPartitionedCall/model_1/efficientnetb0/block4c_se_reshape/Reshape/shape/2", "op": "Const", "attr": {"value": {"tensor": {"dtype": "DT_INT32", "tensorShape": {}}}, "dtype": {"type": "DT_INT32"}}}, {"name": "StatefulPartitionedCall/model_1/efficientnetb0/block4c_se_reshape/Reshape/shape/3", "op": "Const", "attr": {"dtype": {"type": "DT_INT32"}, "value": {"tensor": {"dtype": "DT_INT32", "tensorShape": {}}}}}, {"name": "StatefulPartitionedCall/model_1/efficientnetb0/block4c_se_reduce/Conv2D/ReadVariableOp", "op": "Const", "attr": {"value": {"tensor": {"dtype": "DT_FLOAT", "tensorShape": {"dim": [{"size": "1"}, {"size": "1"}, {"size": "480"}, {"size": "20"}]}}}, "dtype": {"type": "DT_FLOAT"}}}, {"name": "StatefulPartitionedCall/model_1/efficientnetb0/block4c_se_reduce/BiasAdd/ReadVariableOp", "op": "Const", "attr": {"dtype": {"type": "DT_FLOAT"}, "value": {"tensor": {"dtype": "DT_FLOAT", "tensorShape": {"dim": [{"size": "20"}]}}}}}, {"name": "StatefulPartitionedCall/model_1/efficientnetb0/block4c_se_expand/Conv2D/ReadVariableOp", "op": "Const", "attr": {"dtype": {"type": "DT_FLOAT"}, "value": {"tensor": {"dtype": "DT_FLOAT", "tensorShape": {"dim": [{"size": "1"}, {"size": "1"}, {"size": "20"}, {"size": "480"}]}}}}}, {"name": "StatefulPartitionedCall/model_1/efficientnetb0/block4c_se_expand/BiasAdd/ReadVariableOp", "op": "Const", "attr": {"value": {"tensor": {"dtype": "DT_FLOAT", "tensorShape": {"dim": [{"size": "480"}]}}}, "dtype": {"type": "DT_FLOAT"}}}, {"name": "StatefulPartitionedCall/model_1/efficientnetb0/block4b_se_squeeze/Mean/reduction_indices", "op": "Const", "attr": {"value": {"tensor": {"dtype": "DT_INT32", "tensorShape": {"dim": [{"size": "2"}]}}}, "dtype": {"type": "DT_INT32"}}}, {"name": "StatefulPartitionedCall/model_1/efficientnetb0/block4b_se_reshape/strided_slice/stack", "op": "Const", "attr": {"value": {"tensor": {"dtype": "DT_INT32", "tensorShape": {"dim": [{"size": "1"}]}}}, "dtype": {"type": "DT_INT32"}}}, {"name": "StatefulPartitionedCall/model_1/efficientnetb0/block4b_se_reshape/strided_slice/stack_1", "op": "Const", "attr": {"value": {"tensor": {"dtype": "DT_INT32", "tensorShape": {"dim": [{"size": "1"}]}}}, "dtype": {"type": "DT_INT32"}}}, {"name": "StatefulPartitionedCall/model_1/efficientnetb0/block4b_se_reshape/strided_slice/stack_2", "op": "Const", "attr": {"dtype": {"type": "DT_INT32"}, "value": {"tensor": {"dtype": "DT_INT32", "tensorShape": {"dim": [{"size": "1"}]}}}}}, {"name": "StatefulPartitionedCall/model_1/efficientnetb0/block4b_se_reshape/Reshape/shape/1", "op": "Const", "attr": {"dtype": {"type": "DT_INT32"}, "value": {"tensor": {"dtype": "DT_INT32", "tensorShape": {}}}}}, {"name": "StatefulPartitionedCall/model_1/efficientnetb0/block4b_se_reshape/Reshape/shape/2", "op": "Const", "attr": {"value": {"tensor": {"dtype": "DT_INT32", "tensorShape": {}}}, "dtype": {"type": "DT_INT32"}}}, {"name": "StatefulPartitionedCall/model_1/efficientnetb0/block4b_se_reshape/Reshape/shape/3", "op": "Const", "attr": {"value": {"tensor": {"dtype": "DT_INT32", "tensorShape": {}}}, "dtype": {"type": "DT_INT32"}}}, {"name": "StatefulPartitionedCall/model_1/efficientnetb0/block4b_se_reduce/Conv2D/ReadVariableOp", "op": "Const", "attr": {"dtype": {"type": "DT_FLOAT"}, "value": {"tensor": {"dtype": "DT_FLOAT", "tensorShape": {"dim": [{"size": "1"}, {"size": "1"}, {"size": "480"}, {"size": "20"}]}}}}}, {"name": "StatefulPartitionedCall/model_1/efficientnetb0/block4b_se_reduce/BiasAdd/ReadVariableOp", "op": "Const", "attr": {"dtype": {"type": "DT_FLOAT"}, "value": {"tensor": {"dtype": "DT_FLOAT", "tensorShape": {"dim": [{"size": "20"}]}}}}}, {"name": "StatefulPartitionedCall/model_1/efficientnetb0/block4b_se_expand/Conv2D/ReadVariableOp", "op": "Const", "attr": {"value": {"tensor": {"dtype": "DT_FLOAT", "tensorShape": {"dim": [{"size": "1"}, {"size": "1"}, {"size": "20"}, {"size": "480"}]}}}, "dtype": {"type": "DT_FLOAT"}}}, {"name": "StatefulPartitionedCall/model_1/efficientnetb0/block4b_se_expand/BiasAdd/ReadVariableOp", "op": "Const", "attr": {"dtype": {"type": "DT_FLOAT"}, "value": {"tensor": {"dtype": "DT_FLOAT", "tensorShape": {"dim": [{"size": "480"}]}}}}}, {"name": "StatefulPartitionedCall/model_1/efficientnetb0/block3b_se_squeeze/Mean/reduction_indices", "op": "Const", "attr": {"value": {"tensor": {"dtype": "DT_INT32", "tensorShape": {"dim": [{"size": "2"}]}}}, "dtype": {"type": "DT_INT32"}}}, {"name": "StatefulPartitionedCall/model_1/efficientnetb0/block3b_se_reshape/strided_slice/stack", "op": "Const", "attr": {"dtype": {"type": "DT_INT32"}, "value": {"tensor": {"dtype": "DT_INT32", "tensorShape": {"dim": [{"size": "1"}]}}}}}, {"name": "StatefulPartitionedCall/model_1/efficientnetb0/block3b_se_reshape/strided_slice/stack_1", "op": "Const", "attr": {"value": {"tensor": {"dtype": "DT_INT32", "tensorShape": {"dim": [{"size": "1"}]}}}, "dtype": {"type": "DT_INT32"}}}, {"name": "StatefulPartitionedCall/model_1/efficientnetb0/block3b_se_reshape/strided_slice/stack_2", "op": "Const", "attr": {"value": {"tensor": {"dtype": "DT_INT32", "tensorShape": {"dim": [{"size": "1"}]}}}, "dtype": {"type": "DT_INT32"}}}, {"name": "StatefulPartitionedCall/model_1/efficientnetb0/block3b_se_reshape/Reshape/shape/1", "op": "Const", "attr": {"value": {"tensor": {"dtype": "DT_INT32", "tensorShape": {}}}, "dtype": {"type": "DT_INT32"}}}, {"name": "StatefulPartitionedCall/model_1/efficientnetb0/block3b_se_reshape/Reshape/shape/2", "op": "Const", "attr": {"value": {"tensor": {"dtype": "DT_INT32", "tensorShape": {}}}, "dtype": {"type": "DT_INT32"}}}, {"name": "StatefulPartitionedCall/model_1/efficientnetb0/block3b_se_reshape/Reshape/shape/3", "op": "Const", "attr": {"value": {"tensor": {"dtype": "DT_INT32", "tensorShape": {}}}, "dtype": {"type": "DT_INT32"}}}, {"name": "StatefulPartitionedCall/model_1/efficientnetb0/block3b_se_reduce/Conv2D/ReadVariableOp", "op": "Const", "attr": {"value": {"tensor": {"dtype": "DT_FLOAT", "tensorShape": {"dim": [{"size": "1"}, {"size": "1"}, {"size": "240"}, {"size": "10"}]}}}, "dtype": {"type": "DT_FLOAT"}}}, {"name": "StatefulPartitionedCall/model_1/efficientnetb0/block3b_se_reduce/BiasAdd/ReadVariableOp", "op": "Const", "attr": {"value": {"tensor": {"dtype": "DT_FLOAT", "tensorShape": {"dim": [{"size": "10"}]}}}, "dtype": {"type": "DT_FLOAT"}}}, {"name": "StatefulPartitionedCall/model_1/efficientnetb0/block3b_se_expand/Conv2D/ReadVariableOp", "op": "Const", "attr": {"value": {"tensor": {"dtype": "DT_FLOAT", "tensorShape": {"dim": [{"size": "1"}, {"size": "1"}, {"size": "10"}, {"size": "240"}]}}}, "dtype": {"type": "DT_FLOAT"}}}, {"name": "StatefulPartitionedCall/model_1/efficientnetb0/block3b_se_expand/BiasAdd/ReadVariableOp", "op": "Const", "attr": {"dtype": {"type": "DT_FLOAT"}, "value": {"tensor": {"dtype": "DT_FLOAT", "tensorShape": {"dim": [{"size": "240"}]}}}}}, {"name": "StatefulPartitionedCall/model_1/efficientnetb0/block2b_se_squeeze/Mean/reduction_indices", "op": "Const", "attr": {"dtype": {"type": "DT_INT32"}, "value": {"tensor": {"dtype": "DT_INT32", "tensorShape": {"dim": [{"size": "2"}]}}}}}, {"name": "StatefulPartitionedCall/model_1/efficientnetb0/block2b_se_reshape/strided_slice/stack", "op": "Const", "attr": {"value": {"tensor": {"dtype": "DT_INT32", "tensorShape": {"dim": [{"size": "1"}]}}}, "dtype": {"type": "DT_INT32"}}}, {"name": "StatefulPartitionedCall/model_1/efficientnetb0/block2b_se_reshape/strided_slice/stack_1", "op": "Const", "attr": {"dtype": {"type": "DT_INT32"}, "value": {"tensor": {"dtype": "DT_INT32", "tensorShape": {"dim": [{"size": "1"}]}}}}}, {"name": "StatefulPartitionedCall/model_1/efficientnetb0/block2b_se_reshape/strided_slice/stack_2", "op": "Const", "attr": {"dtype": {"type": "DT_INT32"}, "value": {"tensor": {"dtype": "DT_INT32", "tensorShape": {"dim": [{"size": "1"}]}}}}}, {"name": "StatefulPartitionedCall/model_1/efficientnetb0/block2b_se_reshape/Reshape/shape/1", "op": "Const", "attr": {"dtype": {"type": "DT_INT32"}, "value": {"tensor": {"dtype": "DT_INT32", "tensorShape": {}}}}}, {"name": "StatefulPartitionedCall/model_1/efficientnetb0/block2b_se_reshape/Reshape/shape/2", "op": "Const", "attr": {"dtype": {"type": "DT_INT32"}, "value": {"tensor": {"dtype": "DT_INT32", "tensorShape": {}}}}}, {"name": "StatefulPartitionedCall/model_1/efficientnetb0/block2b_se_reshape/Reshape/shape/3", "op": "Const", "attr": {"dtype": {"type": "DT_INT32"}, "value": {"tensor": {"dtype": "DT_INT32", "tensorShape": {}}}}}, {"name": "StatefulPartitionedCall/model_1/efficientnetb0/block2b_se_reduce/Conv2D/ReadVariableOp", "op": "Const", "attr": {"dtype": {"type": "DT_FLOAT"}, "value": {"tensor": {"dtype": "DT_FLOAT", "tensorShape": {"dim": [{"size": "1"}, {"size": "1"}, {"size": "144"}, {"size": "6"}]}}}}}, {"name": "StatefulPartitionedCall/model_1/efficientnetb0/block2b_se_reduce/BiasAdd/ReadVariableOp", "op": "Const", "attr": {"dtype": {"type": "DT_FLOAT"}, "value": {"tensor": {"dtype": "DT_FLOAT", "tensorShape": {"dim": [{"size": "6"}]}}}}}, {"name": "StatefulPartitionedCall/model_1/efficientnetb0/block2b_se_expand/Conv2D/ReadVariableOp", "op": "Const", "attr": {"dtype": {"type": "DT_FLOAT"}, "value": {"tensor": {"dtype": "DT_FLOAT", "tensorShape": {"dim": [{"size": "1"}, {"size": "1"}, {"size": "6"}, {"size": "144"}]}}}}}, {"name": "StatefulPartitionedCall/model_1/efficientnetb0/block2b_se_expand/BiasAdd/ReadVariableOp", "op": "Const", "attr": {"dtype": {"type": "DT_FLOAT"}, "value": {"tensor": {"dtype": "DT_FLOAT", "tensorShape": {"dim": [{"size": "144"}]}}}}}, {"name": "StatefulPartitionedCall/model_1/efficientnetb0/rescaling_1/Cast/x", "op": "Const", "attr": {"dtype": {"type": "DT_FLOAT"}, "value": {"tensor": {"dtype": "DT_FLOAT", "tensorShape": {}}}}}, {"name": "StatefulPartitionedCall/model_1/efficientnetb0/rescaling_1/add", "op": "Const", "attr": {"dtype": {"type": "DT_FLOAT"}, "value": {"tensor": {"dtype": "DT_FLOAT", "tensorShape": {"dim": [{"size": "1"}, {"size": "1"}, {"size": "1"}, {"size": "3"}]}}}}}, {"name": "ConstantFolding/StatefulPartitionedCall/model_1/efficientnetb0/normalization_1/truediv_recip", "op": "Const", "attr": {"value": {"tensor": {"dtype": "DT_FLOAT", "tensorShape": {"dim": [{"size": "1"}, {"size": "1"}, {"size": "1"}, {"size": "3"}]}}}, "dtype": {"type": "DT_FLOAT"}}}, {"name": "StatefulPartitionedCall/model_1/efficientnetb0/stem_conv_pad/Pad/paddings", "op": "Const", "attr": {"dtype": {"type": "DT_INT32"}, "value": {"tensor": {"dtype": "DT_INT32", "tensorShape": {"dim": [{"size": "4"}, {"size": "2"}]}}}}}, {"name": "StatefulPartitionedCall/model_1/efficientnetb0/block1a_se_squeeze/Mean/reduction_indices", "op": "Const", "attr": {"dtype": {"type": "DT_INT32"}, "value": {"tensor": {"dtype": "DT_INT32", "tensorShape": {"dim": [{"size": "2"}]}}}}}, {"name": "StatefulPartitionedCall/model_1/efficientnetb0/block1a_se_reshape/strided_slice/stack", "op": "Const", "attr": {"value": {"tensor": {"dtype": "DT_INT32", "tensorShape": {"dim": [{"size": "1"}]}}}, "dtype": {"type": "DT_INT32"}}}, {"name": "StatefulPartitionedCall/model_1/efficientnetb0/block1a_se_reshape/strided_slice/stack_1", "op": "Const", "attr": {"value": {"tensor": {"dtype": "DT_INT32", "tensorShape": {"dim": [{"size": "1"}]}}}, "dtype": {"type": "DT_INT32"}}}, {"name": "StatefulPartitionedCall/model_1/efficientnetb0/block1a_se_reshape/strided_slice/stack_2", "op": "Const", "attr": {"dtype": {"type": "DT_INT32"}, "value": {"tensor": {"dtype": "DT_INT32", "tensorShape": {"dim": [{"size": "1"}]}}}}}, {"name": "StatefulPartitionedCall/model_1/efficientnetb0/block1a_se_reshape/Reshape/shape/1", "op": "Const", "attr": {"value": {"tensor": {"dtype": "DT_INT32", "tensorShape": {}}}, "dtype": {"type": "DT_INT32"}}}, {"name": "StatefulPartitionedCall/model_1/efficientnetb0/block1a_se_reshape/Reshape/shape/2", "op": "Const", "attr": {"dtype": {"type": "DT_INT32"}, "value": {"tensor": {"dtype": "DT_INT32", "tensorShape": {}}}}}, {"name": "StatefulPartitionedCall/model_1/efficientnetb0/block1a_se_reshape/Reshape/shape/3", "op": "Const", "attr": {"value": {"tensor": {"dtype": "DT_INT32", "tensorShape": {}}}, "dtype": {"type": "DT_INT32"}}}, {"name": "StatefulPartitionedCall/model_1/efficientnetb0/block1a_se_reduce/Conv2D/ReadVariableOp", "op": "Const", "attr": {"dtype": {"type": "DT_FLOAT"}, "value": {"tensor": {"dtype": "DT_FLOAT", "tensorShape": {"dim": [{"size": "1"}, {"size": "1"}, {"size": "32"}, {"size": "8"}]}}}}}, {"name": "StatefulPartitionedCall/model_1/efficientnetb0/block1a_se_reduce/BiasAdd/ReadVariableOp", "op": "Const", "attr": {"value": {"tensor": {"dtype": "DT_FLOAT", "tensorShape": {"dim": [{"size": "8"}]}}}, "dtype": {"type": "DT_FLOAT"}}}, {"name": "StatefulPartitionedCall/model_1/efficientnetb0/block1a_se_expand/Conv2D/ReadVariableOp", "op": "Const", "attr": {"value": {"tensor": {"dtype": "DT_FLOAT", "tensorShape": {"dim": [{"size": "1"}, {"size": "1"}, {"size": "8"}, {"size": "32"}]}}}, "dtype": {"type": "DT_FLOAT"}}}, {"name": "StatefulPartitionedCall/model_1/efficientnetb0/block1a_se_expand/BiasAdd/ReadVariableOp", "op": "Const", "attr": {"dtype": {"type": "DT_FLOAT"}, "value": {"tensor": {"dtype": "DT_FLOAT", "tensorShape": {"dim": [{"size": "32"}]}}}}}, {"name": "StatefulPartitionedCall/model_1/efficientnetb0/block2a_dwconv_pad/Pad/paddings", "op": "Const", "attr": {"dtype": {"type": "DT_INT32"}, "value": {"tensor": {"dtype": "DT_INT32", "tensorShape": {"dim": [{"size": "4"}, {"size": "2"}]}}}}}, {"name": "StatefulPartitionedCall/model_1/efficientnetb0/block2a_se_squeeze/Mean/reduction_indices", "op": "Const", "attr": {"dtype": {"type": "DT_INT32"}, "value": {"tensor": {"dtype": "DT_INT32", "tensorShape": {"dim": [{"size": "2"}]}}}}}, {"name": "StatefulPartitionedCall/model_1/efficientnetb0/block2a_se_reshape/strided_slice/stack", "op": "Const", "attr": {"dtype": {"type": "DT_INT32"}, "value": {"tensor": {"dtype": "DT_INT32", "tensorShape": {"dim": [{"size": "1"}]}}}}}, {"name": "StatefulPartitionedCall/model_1/efficientnetb0/block2a_se_reshape/strided_slice/stack_1", "op": "Const", "attr": {"value": {"tensor": {"dtype": "DT_INT32", "tensorShape": {"dim": [{"size": "1"}]}}}, "dtype": {"type": "DT_INT32"}}}, {"name": "StatefulPartitionedCall/model_1/efficientnetb0/block2a_se_reshape/strided_slice/stack_2", "op": "Const", "attr": {"dtype": {"type": "DT_INT32"}, "value": {"tensor": {"dtype": "DT_INT32", "tensorShape": {"dim": [{"size": "1"}]}}}}}, {"name": "StatefulPartitionedCall/model_1/efficientnetb0/block2a_se_reshape/Reshape/shape/1", "op": "Const", "attr": {"dtype": {"type": "DT_INT32"}, "value": {"tensor": {"dtype": "DT_INT32", "tensorShape": {}}}}}, {"name": "StatefulPartitionedCall/model_1/efficientnetb0/block2a_se_reshape/Reshape/shape/2", "op": "Const", "attr": {"dtype": {"type": "DT_INT32"}, "value": {"tensor": {"dtype": "DT_INT32", "tensorShape": {}}}}}, {"name": "StatefulPartitionedCall/model_1/efficientnetb0/block2a_se_reshape/Reshape/shape/3", "op": "Const", "attr": {"dtype": {"type": "DT_INT32"}, "value": {"tensor": {"dtype": "DT_INT32", "tensorShape": {}}}}}, {"name": "StatefulPartitionedCall/model_1/efficientnetb0/block2a_se_reduce/Conv2D/ReadVariableOp", "op": "Const", "attr": {"dtype": {"type": "DT_FLOAT"}, "value": {"tensor": {"dtype": "DT_FLOAT", "tensorShape": {"dim": [{"size": "1"}, {"size": "1"}, {"size": "96"}, {"size": "4"}]}}}}}, {"name": "StatefulPartitionedCall/model_1/efficientnetb0/block2a_se_reduce/BiasAdd/ReadVariableOp", "op": "Const", "attr": {"value": {"tensor": {"dtype": "DT_FLOAT", "tensorShape": {"dim": [{"size": "4"}]}}}, "dtype": {"type": "DT_FLOAT"}}}, {"name": "StatefulPartitionedCall/model_1/efficientnetb0/block2a_se_expand/Conv2D/ReadVariableOp", "op": "Const", "attr": {"dtype": {"type": "DT_FLOAT"}, "value": {"tensor": {"dtype": "DT_FLOAT", "tensorShape": {"dim": [{"size": "1"}, {"size": "1"}, {"size": "4"}, {"size": "96"}]}}}}}, {"name": "StatefulPartitionedCall/model_1/efficientnetb0/block2a_se_expand/BiasAdd/ReadVariableOp", "op": "Const", "attr": {"dtype": {"type": "DT_FLOAT"}, "value": {"tensor": {"dtype": "DT_FLOAT", "tensorShape": {"dim": [{"size": "96"}]}}}}}, {"name": "StatefulPartitionedCall/model_1/efficientnetb0/block3a_dwconv_pad/Pad/paddings", "op": "Const", "attr": {"value": {"tensor": {"dtype": "DT_INT32", "tensorShape": {"dim": [{"size": "4"}, {"size": "2"}]}}}, "dtype": {"type": "DT_INT32"}}}, {"name": "StatefulPartitionedCall/model_1/efficientnetb0/block3a_se_squeeze/Mean/reduction_indices", "op": "Const", "attr": {"dtype": {"type": "DT_INT32"}, "value": {"tensor": {"dtype": "DT_INT32", "tensorShape": {"dim": [{"size": "2"}]}}}}}, {"name": "StatefulPartitionedCall/model_1/efficientnetb0/block3a_se_reshape/strided_slice/stack", "op": "Const", "attr": {"dtype": {"type": "DT_INT32"}, "value": {"tensor": {"dtype": "DT_INT32", "tensorShape": {"dim": [{"size": "1"}]}}}}}, {"name": "StatefulPartitionedCall/model_1/efficientnetb0/block3a_se_reshape/strided_slice/stack_1", "op": "Const", "attr": {"dtype": {"type": "DT_INT32"}, "value": {"tensor": {"dtype": "DT_INT32", "tensorShape": {"dim": [{"size": "1"}]}}}}}, {"name": "StatefulPartitionedCall/model_1/efficientnetb0/block3a_se_reshape/strided_slice/stack_2", "op": "Const", "attr": {"dtype": {"type": "DT_INT32"}, "value": {"tensor": {"dtype": "DT_INT32", "tensorShape": {"dim": [{"size": "1"}]}}}}}, {"name": "StatefulPartitionedCall/model_1/efficientnetb0/block3a_se_reshape/Reshape/shape/1", "op": "Const", "attr": {"value": {"tensor": {"dtype": "DT_INT32", "tensorShape": {}}}, "dtype": {"type": "DT_INT32"}}}, {"name": "StatefulPartitionedCall/model_1/efficientnetb0/block3a_se_reshape/Reshape/shape/2", "op": "Const", "attr": {"dtype": {"type": "DT_INT32"}, "value": {"tensor": {"dtype": "DT_INT32", "tensorShape": {}}}}}, {"name": "StatefulPartitionedCall/model_1/efficientnetb0/block3a_se_reshape/Reshape/shape/3", "op": "Const", "attr": {"dtype": {"type": "DT_INT32"}, "value": {"tensor": {"dtype": "DT_INT32", "tensorShape": {}}}}}, {"name": "StatefulPartitionedCall/model_1/efficientnetb0/block3a_se_reduce/Conv2D/ReadVariableOp", "op": "Const", "attr": {"dtype": {"type": "DT_FLOAT"}, "value": {"tensor": {"dtype": "DT_FLOAT", "tensorShape": {"dim": [{"size": "1"}, {"size": "1"}, {"size": "144"}, {"size": "6"}]}}}}}, {"name": "StatefulPartitionedCall/model_1/efficientnetb0/block3a_se_reduce/BiasAdd/ReadVariableOp", "op": "Const", "attr": {"dtype": {"type": "DT_FLOAT"}, "value": {"tensor": {"dtype": "DT_FLOAT", "tensorShape": {"dim": [{"size": "6"}]}}}}}, {"name": "StatefulPartitionedCall/model_1/efficientnetb0/block3a_se_expand/Conv2D/ReadVariableOp", "op": "Const", "attr": {"dtype": {"type": "DT_FLOAT"}, "value": {"tensor": {"dtype": "DT_FLOAT", "tensorShape": {"dim": [{"size": "1"}, {"size": "1"}, {"size": "6"}, {"size": "144"}]}}}}}, {"name": "StatefulPartitionedCall/model_1/efficientnetb0/block3a_se_expand/BiasAdd/ReadVariableOp", "op": "Const", "attr": {"dtype": {"type": "DT_FLOAT"}, "value": {"tensor": {"dtype": "DT_FLOAT", "tensorShape": {"dim": [{"size": "144"}]}}}}}, {"name": "StatefulPartitionedCall/model_1/efficientnetb0/block4a_dwconv_pad/Pad/paddings", "op": "Const", "attr": {"dtype": {"type": "DT_INT32"}, "value": {"tensor": {"dtype": "DT_INT32", "tensorShape": {"dim": [{"size": "4"}, {"size": "2"}]}}}}}, {"name": "StatefulPartitionedCall/model_1/efficientnetb0/block4a_se_squeeze/Mean/reduction_indices", "op": "Const", "attr": {"dtype": {"type": "DT_INT32"}, "value": {"tensor": {"dtype": "DT_INT32", "tensorShape": {"dim": [{"size": "2"}]}}}}}, {"name": "StatefulPartitionedCall/model_1/efficientnetb0/block4a_se_reshape/strided_slice/stack", "op": "Const", "attr": {"value": {"tensor": {"dtype": "DT_INT32", "tensorShape": {"dim": [{"size": "1"}]}}}, "dtype": {"type": "DT_INT32"}}}, {"name": "StatefulPartitionedCall/model_1/efficientnetb0/block4a_se_reshape/strided_slice/stack_1", "op": "Const", "attr": {"value": {"tensor": {"dtype": "DT_INT32", "tensorShape": {"dim": [{"size": "1"}]}}}, "dtype": {"type": "DT_INT32"}}}, {"name": "StatefulPartitionedCall/model_1/efficientnetb0/block4a_se_reshape/strided_slice/stack_2", "op": "Const", "attr": {"value": {"tensor": {"dtype": "DT_INT32", "tensorShape": {"dim": [{"size": "1"}]}}}, "dtype": {"type": "DT_INT32"}}}, {"name": "StatefulPartitionedCall/model_1/efficientnetb0/block4a_se_reshape/Reshape/shape/1", "op": "Const", "attr": {"value": {"tensor": {"dtype": "DT_INT32", "tensorShape": {}}}, "dtype": {"type": "DT_INT32"}}}, {"name": "StatefulPartitionedCall/model_1/efficientnetb0/block4a_se_reshape/Reshape/shape/2", "op": "Const", "attr": {"dtype": {"type": "DT_INT32"}, "value": {"tensor": {"dtype": "DT_INT32", "tensorShape": {}}}}}, {"name": "StatefulPartitionedCall/model_1/efficientnetb0/block4a_se_reshape/Reshape/shape/3", "op": "Const", "attr": {"dtype": {"type": "DT_INT32"}, "value": {"tensor": {"dtype": "DT_INT32", "tensorShape": {}}}}}, {"name": "StatefulPartitionedCall/model_1/efficientnetb0/block4a_se_reduce/Conv2D/ReadVariableOp", "op": "Const", "attr": {"value": {"tensor": {"dtype": "DT_FLOAT", "tensorShape": {"dim": [{"size": "1"}, {"size": "1"}, {"size": "240"}, {"size": "10"}]}}}, "dtype": {"type": "DT_FLOAT"}}}, {"name": "StatefulPartitionedCall/model_1/efficientnetb0/block4a_se_reduce/BiasAdd/ReadVariableOp", "op": "Const", "attr": {"dtype": {"type": "DT_FLOAT"}, "value": {"tensor": {"dtype": "DT_FLOAT", "tensorShape": {"dim": [{"size": "10"}]}}}}}, {"name": "StatefulPartitionedCall/model_1/efficientnetb0/block4a_se_expand/Conv2D/ReadVariableOp", "op": "Const", "attr": {"dtype": {"type": "DT_FLOAT"}, "value": {"tensor": {"dtype": "DT_FLOAT", "tensorShape": {"dim": [{"size": "1"}, {"size": "1"}, {"size": "10"}, {"size": "240"}]}}}}}, {"name": "StatefulPartitionedCall/model_1/efficientnetb0/block4a_se_expand/BiasAdd/ReadVariableOp", "op": "Const", "attr": {"dtype": {"type": "DT_FLOAT"}, "value": {"tensor": {"dtype": "DT_FLOAT", "tensorShape": {"dim": [{"size": "240"}]}}}}}, {"name": "StatefulPartitionedCall/model_1/efficientnetb0/block5a_se_squeeze/Mean/reduction_indices", "op": "Const", "attr": {"value": {"tensor": {"dtype": "DT_INT32", "tensorShape": {"dim": [{"size": "2"}]}}}, "dtype": {"type": "DT_INT32"}}}, {"name": "StatefulPartitionedCall/model_1/efficientnetb0/block5a_se_reshape/strided_slice/stack", "op": "Const", "attr": {"dtype": {"type": "DT_INT32"}, "value": {"tensor": {"dtype": "DT_INT32", "tensorShape": {"dim": [{"size": "1"}]}}}}}, {"name": "StatefulPartitionedCall/model_1/efficientnetb0/block5a_se_reshape/strided_slice/stack_1", "op": "Const", "attr": {"value": {"tensor": {"dtype": "DT_INT32", "tensorShape": {"dim": [{"size": "1"}]}}}, "dtype": {"type": "DT_INT32"}}}, {"name": "StatefulPartitionedCall/model_1/efficientnetb0/block5a_se_reshape/strided_slice/stack_2", "op": "Const", "attr": {"dtype": {"type": "DT_INT32"}, "value": {"tensor": {"dtype": "DT_INT32", "tensorShape": {"dim": [{"size": "1"}]}}}}}, {"name": "StatefulPartitionedCall/model_1/efficientnetb0/block5a_se_reshape/Reshape/shape/1", "op": "Const", "attr": {"dtype": {"type": "DT_INT32"}, "value": {"tensor": {"dtype": "DT_INT32", "tensorShape": {}}}}}, {"name": "StatefulPartitionedCall/model_1/efficientnetb0/block5a_se_reshape/Reshape/shape/2", "op": "Const", "attr": {"value": {"tensor": {"dtype": "DT_INT32", "tensorShape": {}}}, "dtype": {"type": "DT_INT32"}}}, {"name": "StatefulPartitionedCall/model_1/efficientnetb0/block5a_se_reshape/Reshape/shape/3", "op": "Const", "attr": {"value": {"tensor": {"dtype": "DT_INT32", "tensorShape": {}}}, "dtype": {"type": "DT_INT32"}}}, {"name": "StatefulPartitionedCall/model_1/efficientnetb0/block5a_se_reduce/Conv2D/ReadVariableOp", "op": "Const", "attr": {"dtype": {"type": "DT_FLOAT"}, "value": {"tensor": {"dtype": "DT_FLOAT", "tensorShape": {"dim": [{"size": "1"}, {"size": "1"}, {"size": "480"}, {"size": "20"}]}}}}}, {"name": "StatefulPartitionedCall/model_1/efficientnetb0/block5a_se_reduce/BiasAdd/ReadVariableOp", "op": "Const", "attr": {"dtype": {"type": "DT_FLOAT"}, "value": {"tensor": {"dtype": "DT_FLOAT", "tensorShape": {"dim": [{"size": "20"}]}}}}}, {"name": "StatefulPartitionedCall/model_1/efficientnetb0/block5a_se_expand/Conv2D/ReadVariableOp", "op": "Const", "attr": {"dtype": {"type": "DT_FLOAT"}, "value": {"tensor": {"dtype": "DT_FLOAT", "tensorShape": {"dim": [{"size": "1"}, {"size": "1"}, {"size": "20"}, {"size": "480"}]}}}}}, {"name": "StatefulPartitionedCall/model_1/efficientnetb0/block5a_se_expand/BiasAdd/ReadVariableOp", "op": "Const", "attr": {"dtype": {"type": "DT_FLOAT"}, "value": {"tensor": {"dtype": "DT_FLOAT", "tensorShape": {"dim": [{"size": "480"}]}}}}}, {"name": "StatefulPartitionedCall/model_1/efficientnetb0/block6a_dwconv_pad/Pad/paddings", "op": "Const", "attr": {"dtype": {"type": "DT_INT32"}, "value": {"tensor": {"dtype": "DT_INT32", "tensorShape": {"dim": [{"size": "4"}, {"size": "2"}]}}}}}, {"name": "StatefulPartitionedCall/model_1/efficientnetb0/block6a_se_squeeze/Mean/reduction_indices", "op": "Const", "attr": {"dtype": {"type": "DT_INT32"}, "value": {"tensor": {"dtype": "DT_INT32", "tensorShape": {"dim": [{"size": "2"}]}}}}}, {"name": "StatefulPartitionedCall/model_1/efficientnetb0/block6a_se_reshape/strided_slice/stack", "op": "Const", "attr": {"dtype": {"type": "DT_INT32"}, "value": {"tensor": {"dtype": "DT_INT32", "tensorShape": {"dim": [{"size": "1"}]}}}}}, {"name": "StatefulPartitionedCall/model_1/efficientnetb0/block6a_se_reshape/strided_slice/stack_1", "op": "Const", "attr": {"value": {"tensor": {"dtype": "DT_INT32", "tensorShape": {"dim": [{"size": "1"}]}}}, "dtype": {"type": "DT_INT32"}}}, {"name": "StatefulPartitionedCall/model_1/efficientnetb0/block6a_se_reshape/strided_slice/stack_2", "op": "Const", "attr": {"dtype": {"type": "DT_INT32"}, "value": {"tensor": {"dtype": "DT_INT32", "tensorShape": {"dim": [{"size": "1"}]}}}}}, {"name": "StatefulPartitionedCall/model_1/efficientnetb0/block6a_se_reshape/Reshape/shape/1", "op": "Const", "attr": {"dtype": {"type": "DT_INT32"}, "value": {"tensor": {"dtype": "DT_INT32", "tensorShape": {}}}}}, {"name": "StatefulPartitionedCall/model_1/efficientnetb0/block6a_se_reshape/Reshape/shape/2", "op": "Const", "attr": {"dtype": {"type": "DT_INT32"}, "value": {"tensor": {"dtype": "DT_INT32", "tensorShape": {}}}}}, {"name": "StatefulPartitionedCall/model_1/efficientnetb0/block6a_se_reshape/Reshape/shape/3", "op": "Const", "attr": {"dtype": {"type": "DT_INT32"}, "value": {"tensor": {"dtype": "DT_INT32", "tensorShape": {}}}}}, {"name": "StatefulPartitionedCall/model_1/efficientnetb0/block6a_se_reduce/Conv2D/ReadVariableOp", "op": "Const", "attr": {"dtype": {"type": "DT_FLOAT"}, "value": {"tensor": {"dtype": "DT_FLOAT", "tensorShape": {"dim": [{"size": "1"}, {"size": "1"}, {"size": "672"}, {"size": "28"}]}}}}}, {"name": "StatefulPartitionedCall/model_1/efficientnetb0/block6a_se_reduce/BiasAdd/ReadVariableOp", "op": "Const", "attr": {"dtype": {"type": "DT_FLOAT"}, "value": {"tensor": {"dtype": "DT_FLOAT", "tensorShape": {"dim": [{"size": "28"}]}}}}}, {"name": "StatefulPartitionedCall/model_1/efficientnetb0/block6a_se_expand/Conv2D/ReadVariableOp", "op": "Const", "attr": {"dtype": {"type": "DT_FLOAT"}, "value": {"tensor": {"dtype": "DT_FLOAT", "tensorShape": {"dim": [{"size": "1"}, {"size": "1"}, {"size": "28"}, {"size": "672"}]}}}}}, {"name": "StatefulPartitionedCall/model_1/efficientnetb0/block6a_se_expand/BiasAdd/ReadVariableOp", "op": "Const", "attr": {"value": {"tensor": {"dtype": "DT_FLOAT", "tensorShape": {"dim": [{"size": "672"}]}}}, "dtype": {"type": "DT_FLOAT"}}}, {"name": "StatefulPartitionedCall/model_1/efficientnetb0/block7a_se_squeeze/Mean/reduction_indices", "op": "Const", "attr": {"dtype": {"type": "DT_INT32"}, "value": {"tensor": {"dtype": "DT_INT32", "tensorShape": {"dim": [{"size": "2"}]}}}}}, {"name": "StatefulPartitionedCall/model_1/efficientnetb0/block7a_se_reshape/strided_slice/stack", "op": "Const", "attr": {"dtype": {"type": "DT_INT32"}, "value": {"tensor": {"dtype": "DT_INT32", "tensorShape": {"dim": [{"size": "1"}]}}}}}, {"name": "StatefulPartitionedCall/model_1/efficientnetb0/block7a_se_reshape/strided_slice/stack_1", "op": "Const", "attr": {"dtype": {"type": "DT_INT32"}, "value": {"tensor": {"dtype": "DT_INT32", "tensorShape": {"dim": [{"size": "1"}]}}}}}, {"name": "StatefulPartitionedCall/model_1/efficientnetb0/block7a_se_reshape/strided_slice/stack_2", "op": "Const", "attr": {"value": {"tensor": {"dtype": "DT_INT32", "tensorShape": {"dim": [{"size": "1"}]}}}, "dtype": {"type": "DT_INT32"}}}, {"name": "StatefulPartitionedCall/model_1/efficientnetb0/block7a_se_reshape/Reshape/shape/1", "op": "Const", "attr": {"value": {"tensor": {"dtype": "DT_INT32", "tensorShape": {}}}, "dtype": {"type": "DT_INT32"}}}, {"name": "StatefulPartitionedCall/model_1/efficientnetb0/block7a_se_reshape/Reshape/shape/2", "op": "Const", "attr": {"value": {"tensor": {"dtype": "DT_INT32", "tensorShape": {}}}, "dtype": {"type": "DT_INT32"}}}, {"name": "StatefulPartitionedCall/model_1/efficientnetb0/block7a_se_reshape/Reshape/shape/3", "op": "Const", "attr": {"dtype": {"type": "DT_INT32"}, "value": {"tensor": {"dtype": "DT_INT32", "tensorShape": {}}}}}, {"name": "StatefulPartitionedCall/model_1/efficientnetb0/block7a_se_reduce/Conv2D/ReadVariableOp", "op": "Const", "attr": {"dtype": {"type": "DT_FLOAT"}, "value": {"tensor": {"dtype": "DT_FLOAT", "tensorShape": {"dim": [{"size": "1"}, {"size": "1"}, {"size": "1152"}, {"size": "48"}]}}}}}, {"name": "StatefulPartitionedCall/model_1/efficientnetb0/block7a_se_reduce/BiasAdd/ReadVariableOp", "op": "Const", "attr": {"value": {"tensor": {"dtype": "DT_FLOAT", "tensorShape": {"dim": [{"size": "48"}]}}}, "dtype": {"type": "DT_FLOAT"}}}, {"name": "StatefulPartitionedCall/model_1/efficientnetb0/block7a_se_expand/Conv2D/ReadVariableOp", "op": "Const", "attr": {"value": {"tensor": {"dtype": "DT_FLOAT", "tensorShape": {"dim": [{"size": "1"}, {"size": "1"}, {"size": "48"}, {"size": "1152"}]}}}, "dtype": {"type": "DT_FLOAT"}}}, {"name": "StatefulPartitionedCall/model_1/efficientnetb0/block7a_se_expand/BiasAdd/ReadVariableOp", "op": "Const", "attr": {"value": {"tensor": {"dtype": "DT_FLOAT", "tensorShape": {"dim": [{"size": "1152"}]}}}, "dtype": {"type": "DT_FLOAT"}}}, {"name": "StatefulPartitionedCall/model_1/global_average_pooling2d_1/Mean/reduction_indices", "op": "Const", "attr": {"dtype": {"type": "DT_INT32"}, "value": {"tensor": {"dtype": "DT_INT32", "tensorShape": {"dim": [{"size": "2"}]}}}}}, {"name": "StatefulPartitionedCall/sequential/dense/MatMul/ReadVariableOp", "op": "Const", "attr": {"value": {"tensor": {"dtype": "DT_FLOAT", "tensorShape": {"dim": [{"size": "1280"}, {"size": "128"}]}}}, "dtype": {"type": "DT_FLOAT"}}}, {"name": "StatefulPartitionedCall/sequential/dense/BiasAdd/ReadVariableOp", "op": "Const", "attr": {"dtype": {"type": "DT_FLOAT"}, "value": {"tensor": {"dtype": "DT_FLOAT", "tensorShape": {"dim": [{"size": "128"}]}}}}}, {"name": "StatefulPartitionedCall/sequential/dense_1/MatMul/ReadVariableOp", "op": "Const", "attr": {"value": {"tensor": {"dtype": "DT_FLOAT", "tensorShape": {"dim": [{"size": "128"}, {"size": "12"}]}}}, "dtype": {"type": "DT_FLOAT"}}}, {"name": "StatefulPartitionedCall/sequential/dense_1/BiasAdd/ReadVariableOp", "op": "Const", "attr": {"dtype": {"type": "DT_FLOAT"}, "value": {"tensor": {"dtype": "DT_FLOAT", "tensorShape": {"dim": [{"size": "12"}]}}}}}, {"name": "input", "op": "Placeholder", "attr": {"dtype": {"type": "DT_FLOAT"}, "shape": {"shape": {"dim": [{"size": "-1"}, {"size": "-1"}, {"size": "-1"}, {"size": "3"}]}}}}, {"name": "StatefulPartitionedCall/model_1/efficientnetb0/stem_conv/Conv2D_weights", "op": "Const", "attr": {"value": {"tensor": {"dtype": "DT_FLOAT", "tensorShape": {"dim": [{"size": "3"}, {"size": "3"}, {"size": "3"}, {"size": "32"}]}}}, "dtype": {"type": "DT_FLOAT"}}}, {"name": "StatefulPartitionedCall/model_1/efficientnetb0/stem_conv/Conv2D_bn_offset", "op": "Const", "attr": {"dtype": {"type": "DT_FLOAT"}, "value": {"tensor": {"dtype": "DT_FLOAT", "tensorShape": {"dim": [{"size": "32"}]}}}}}, {"name": "StatefulPartitionedCall/model_1/efficientnetb0/block1a_dwconv/depthwise_weights", "op": "Const", "attr": {"value": {"tensor": {"dtype": "DT_FLOAT", "tensorShape": {"dim": [{"size": "3"}, {"size": "3"}, {"size": "32"}, {"size": "1"}]}}}, "dtype": {"type": "DT_FLOAT"}}}, {"name": "StatefulPartitionedCall/model_1/efficientnetb0/block1a_dwconv/depthwise_bn_offset", "op": "Const", "attr": {"value": {"tensor": {"dtype": "DT_FLOAT", "tensorShape": {"dim": [{"size": "32"}]}}}, "dtype": {"type": "DT_FLOAT"}}}, {"name": "StatefulPartitionedCall/model_1/efficientnetb0/block6d_dwconv/depthwise_weights", "op": "Const", "attr": {"value": {"tensor": {"dtype": "DT_FLOAT", "tensorShape": {"dim": [{"size": "5"}, {"size": "5"}, {"size": "1152"}, {"size": "1"}]}}}, "dtype": {"type": "DT_FLOAT"}}}, {"name": "StatefulPartitionedCall/model_1/efficientnetb0/block1a_project_conv/Conv2D_weights", "op": "Const", "attr": {"value": {"tensor": {"dtype": "DT_FLOAT", "tensorShape": {"dim": [{"size": "1"}, {"size": "1"}, {"size": "32"}, {"size": "16"}]}}}, "dtype": {"type": "DT_FLOAT"}}}, {"name": "StatefulPartitionedCall/model_1/efficientnetb0/block6d_dwconv/depthwise_bn_offset", "op": "Const", "attr": {"dtype": {"type": "DT_FLOAT"}, "value": {"tensor": {"dtype": "DT_FLOAT", "tensorShape": {"dim": [{"size": "1152"}]}}}}}, {"name": "StatefulPartitionedCall/model_1/efficientnetb0/block1a_project_conv/Conv2D_bn_offset", "op": "Const", "attr": {"dtype": {"type": "DT_FLOAT"}, "value": {"tensor": {"dtype": "DT_FLOAT", "tensorShape": {"dim": [{"size": "16"}]}}}}}, {"name": "StatefulPartitionedCall/model_1/efficientnetb0/block2a_expand_conv/Conv2D_weights", "op": "Const", "attr": {"value": {"tensor": {"dtype": "DT_FLOAT", "tensorShape": {"dim": [{"size": "1"}, {"size": "1"}, {"size": "16"}, {"size": "96"}]}}}, "dtype": {"type": "DT_FLOAT"}}}, {"name": "StatefulPartitionedCall/model_1/efficientnetb0/block2a_expand_conv/Conv2D_bn_offset", "op": "Const", "attr": {"dtype": {"type": "DT_FLOAT"}, "value": {"tensor": {"dtype": "DT_FLOAT", "tensorShape": {"dim": [{"size": "96"}]}}}}}, {"name": "StatefulPartitionedCall/model_1/efficientnetb0/block2a_dwconv/depthwise_weights", "op": "Const", "attr": {"value": {"tensor": {"dtype": "DT_FLOAT", "tensorShape": {"dim": [{"size": "3"}, {"size": "3"}, {"size": "96"}, {"size": "1"}]}}}, "dtype": {"type": "DT_FLOAT"}}}, {"name": "StatefulPartitionedCall/model_1/efficientnetb0/block2a_dwconv/depthwise_bn_offset", "op": "Const", "attr": {"dtype": {"type": "DT_FLOAT"}, "value": {"tensor": {"dtype": "DT_FLOAT", "tensorShape": {"dim": [{"size": "96"}]}}}}}, {"name": "StatefulPartitionedCall/model_1/efficientnetb0/block2a_project_conv/Conv2D_weights", "op": "Const", "attr": {"value": {"tensor": {"dtype": "DT_FLOAT", "tensorShape": {"dim": [{"size": "1"}, {"size": "1"}, {"size": "96"}, {"size": "24"}]}}}, "dtype": {"type": "DT_FLOAT"}}}, {"name": "StatefulPartitionedCall/model_1/efficientnetb0/block2a_project_conv/Conv2D_bn_offset", "op": "Const", "attr": {"value": {"tensor": {"dtype": "DT_FLOAT", "tensorShape": {"dim": [{"size": "24"}]}}}, "dtype": {"type": "DT_FLOAT"}}}, {"name": "StatefulPartitionedCall/model_1/efficientnetb0/block2b_expand_conv/Conv2D_weights", "op": "Const", "attr": {"value": {"tensor": {"dtype": "DT_FLOAT", "tensorShape": {"dim": [{"size": "1"}, {"size": "1"}, {"size": "24"}, {"size": "144"}]}}}, "dtype": {"type": "DT_FLOAT"}}}, {"name": "StatefulPartitionedCall/model_1/efficientnetb0/block2b_expand_conv/Conv2D_bn_offset", "op": "Const", "attr": {"dtype": {"type": "DT_FLOAT"}, "value": {"tensor": {"dtype": "DT_FLOAT", "tensorShape": {"dim": [{"size": "144"}]}}}}}, {"name": "StatefulPartitionedCall/model_1/efficientnetb0/block2b_dwconv/depthwise_weights", "op": "Const", "attr": {"dtype": {"type": "DT_FLOAT"}, "value": {"tensor": {"dtype": "DT_FLOAT", "tensorShape": {"dim": [{"size": "3"}, {"size": "3"}, {"size": "144"}, {"size": "1"}]}}}}}, {"name": "StatefulPartitionedCall/model_1/efficientnetb0/block2b_dwconv/depthwise_bn_offset", "op": "Const", "attr": {"dtype": {"type": "DT_FLOAT"}, "value": {"tensor": {"dtype": "DT_FLOAT", "tensorShape": {"dim": [{"size": "144"}]}}}}}, {"name": "StatefulPartitionedCall/model_1/efficientnetb0/block2b_project_conv/Conv2D_weights", "op": "Const", "attr": {"value": {"tensor": {"dtype": "DT_FLOAT", "tensorShape": {"dim": [{"size": "1"}, {"size": "1"}, {"size": "144"}, {"size": "24"}]}}}, "dtype": {"type": "DT_FLOAT"}}}, {"name": "StatefulPartitionedCall/model_1/efficientnetb0/block2b_project_conv/Conv2D_bn_offset", "op": "Const", "attr": {"dtype": {"type": "DT_FLOAT"}, "value": {"tensor": {"dtype": "DT_FLOAT", "tensorShape": {"dim": [{"size": "24"}]}}}}}, {"name": "StatefulPartitionedCall/model_1/efficientnetb0/block3a_expand_conv/Conv2D_weights", "op": "Const", "attr": {"value": {"tensor": {"dtype": "DT_FLOAT", "tensorShape": {"dim": [{"size": "1"}, {"size": "1"}, {"size": "24"}, {"size": "144"}]}}}, "dtype": {"type": "DT_FLOAT"}}}, {"name": "StatefulPartitionedCall/model_1/efficientnetb0/block3a_expand_conv/Conv2D_bn_offset", "op": "Const", "attr": {"dtype": {"type": "DT_FLOAT"}, "value": {"tensor": {"dtype": "DT_FLOAT", "tensorShape": {"dim": [{"size": "144"}]}}}}}, {"name": "StatefulPartitionedCall/model_1/efficientnetb0/block3a_dwconv/depthwise_weights", "op": "Const", "attr": {"dtype": {"type": "DT_FLOAT"}, "value": {"tensor": {"dtype": "DT_FLOAT", "tensorShape": {"dim": [{"size": "5"}, {"size": "5"}, {"size": "144"}, {"size": "1"}]}}}}}, {"name": "StatefulPartitionedCall/model_1/efficientnetb0/block3a_dwconv/depthwise_bn_offset", "op": "Const", "attr": {"dtype": {"type": "DT_FLOAT"}, "value": {"tensor": {"dtype": "DT_FLOAT", "tensorShape": {"dim": [{"size": "144"}]}}}}}, {"name": "StatefulPartitionedCall/model_1/efficientnetb0/block3a_project_conv/Conv2D_weights", "op": "Const", "attr": {"dtype": {"type": "DT_FLOAT"}, "value": {"tensor": {"dtype": "DT_FLOAT", "tensorShape": {"dim": [{"size": "1"}, {"size": "1"}, {"size": "144"}, {"size": "40"}]}}}}}, {"name": "StatefulPartitionedCall/model_1/efficientnetb0/block3a_project_conv/Conv2D_bn_offset", "op": "Const", "attr": {"dtype": {"type": "DT_FLOAT"}, "value": {"tensor": {"dtype": "DT_FLOAT", "tensorShape": {"dim": [{"size": "40"}]}}}}}, {"name": "StatefulPartitionedCall/model_1/efficientnetb0/block3b_expand_conv/Conv2D_weights", "op": "Const", "attr": {"value": {"tensor": {"dtype": "DT_FLOAT", "tensorShape": {"dim": [{"size": "1"}, {"size": "1"}, {"size": "40"}, {"size": "240"}]}}}, "dtype": {"type": "DT_FLOAT"}}}, {"name": "StatefulPartitionedCall/model_1/efficientnetb0/block3b_expand_conv/Conv2D_bn_offset", "op": "Const", "attr": {"value": {"tensor": {"dtype": "DT_FLOAT", "tensorShape": {"dim": [{"size": "240"}]}}}, "dtype": {"type": "DT_FLOAT"}}}, {"name": "StatefulPartitionedCall/model_1/efficientnetb0/block3b_dwconv/depthwise_weights", "op": "Const", "attr": {"dtype": {"type": "DT_FLOAT"}, "value": {"tensor": {"dtype": "DT_FLOAT", "tensorShape": {"dim": [{"size": "5"}, {"size": "5"}, {"size": "240"}, {"size": "1"}]}}}}}, {"name": "StatefulPartitionedCall/model_1/efficientnetb0/block3b_dwconv/depthwise_bn_offset", "op": "Const", "attr": {"value": {"tensor": {"dtype": "DT_FLOAT", "tensorShape": {"dim": [{"size": "240"}]}}}, "dtype": {"type": "DT_FLOAT"}}}, {"name": "StatefulPartitionedCall/model_1/efficientnetb0/block3b_project_conv/Conv2D_weights", "op": "Const", "attr": {"value": {"tensor": {"dtype": "DT_FLOAT", "tensorShape": {"dim": [{"size": "1"}, {"size": "1"}, {"size": "240"}, {"size": "40"}]}}}, "dtype": {"type": "DT_FLOAT"}}}, {"name": "StatefulPartitionedCall/model_1/efficientnetb0/block3b_project_conv/Conv2D_bn_offset", "op": "Const", "attr": {"value": {"tensor": {"dtype": "DT_FLOAT", "tensorShape": {"dim": [{"size": "40"}]}}}, "dtype": {"type": "DT_FLOAT"}}}, {"name": "StatefulPartitionedCall/model_1/efficientnetb0/block4a_expand_conv/Conv2D_weights", "op": "Const", "attr": {"value": {"tensor": {"dtype": "DT_FLOAT", "tensorShape": {"dim": [{"size": "1"}, {"size": "1"}, {"size": "40"}, {"size": "240"}]}}}, "dtype": {"type": "DT_FLOAT"}}}, {"name": "StatefulPartitionedCall/model_1/efficientnetb0/block6d_project_conv/Conv2D_weights", "op": "Const", "attr": {"dtype": {"type": "DT_FLOAT"}, "value": {"tensor": {"dtype": "DT_FLOAT", "tensorShape": {"dim": [{"size": "1"}, {"size": "1"}, {"size": "1152"}, {"size": "192"}]}}}}}, {"name": "StatefulPartitionedCall/model_1/efficientnetb0/block4a_expand_conv/Conv2D_bn_offset", "op": "Const", "attr": {"value": {"tensor": {"dtype": "DT_FLOAT", "tensorShape": {"dim": [{"size": "240"}]}}}, "dtype": {"type": "DT_FLOAT"}}}, {"name": "StatefulPartitionedCall/model_1/efficientnetb0/block4a_dwconv/depthwise_weights", "op": "Const", "attr": {"value": {"tensor": {"dtype": "DT_FLOAT", "tensorShape": {"dim": [{"size": "3"}, {"size": "3"}, {"size": "240"}, {"size": "1"}]}}}, "dtype": {"type": "DT_FLOAT"}}}, {"name": "StatefulPartitionedCall/model_1/efficientnetb0/block4a_dwconv/depthwise_bn_offset", "op": "Const", "attr": {"value": {"tensor": {"dtype": "DT_FLOAT", "tensorShape": {"dim": [{"size": "240"}]}}}, "dtype": {"type": "DT_FLOAT"}}}, {"name": "StatefulPartitionedCall/model_1/efficientnetb0/block6d_project_conv/Conv2D_bn_offset", "op": "Const", "attr": {"dtype": {"type": "DT_FLOAT"}, "value": {"tensor": {"dtype": "DT_FLOAT", "tensorShape": {"dim": [{"size": "192"}]}}}}}, {"name": "StatefulPartitionedCall/model_1/efficientnetb0/block4a_project_conv/Conv2D_weights", "op": "Const", "attr": {"dtype": {"type": "DT_FLOAT"}, "value": {"tensor": {"dtype": "DT_FLOAT", "tensorShape": {"dim": [{"size": "1"}, {"size": "1"}, {"size": "240"}, {"size": "80"}]}}}}}, {"name": "StatefulPartitionedCall/model_1/efficientnetb0/block4a_project_conv/Conv2D_bn_offset", "op": "Const", "attr": {"dtype": {"type": "DT_FLOAT"}, "value": {"tensor": {"dtype": "DT_FLOAT", "tensorShape": {"dim": [{"size": "80"}]}}}}}, {"name": "StatefulPartitionedCall/model_1/efficientnetb0/block4b_expand_conv/Conv2D_weights", "op": "Const", "attr": {"dtype": {"type": "DT_FLOAT"}, "value": {"tensor": {"dtype": "DT_FLOAT", "tensorShape": {"dim": [{"size": "1"}, {"size": "1"}, {"size": "80"}, {"size": "480"}]}}}}}, {"name": "StatefulPartitionedCall/model_1/efficientnetb0/block4b_expand_conv/Conv2D_bn_offset", "op": "Const", "attr": {"value": {"tensor": {"dtype": "DT_FLOAT", "tensorShape": {"dim": [{"size": "480"}]}}}, "dtype": {"type": "DT_FLOAT"}}}, {"name": "StatefulPartitionedCall/model_1/efficientnetb0/block4b_dwconv/depthwise_weights", "op": "Const", "attr": {"value": {"tensor": {"dtype": "DT_FLOAT", "tensorShape": {"dim": [{"size": "3"}, {"size": "3"}, {"size": "480"}, {"size": "1"}]}}}, "dtype": {"type": "DT_FLOAT"}}}, {"name": "StatefulPartitionedCall/model_1/efficientnetb0/block4b_dwconv/depthwise_bn_offset", "op": "Const", "attr": {"dtype": {"type": "DT_FLOAT"}, "value": {"tensor": {"dtype": "DT_FLOAT", "tensorShape": {"dim": [{"size": "480"}]}}}}}, {"name": "StatefulPartitionedCall/model_1/efficientnetb0/block7a_expand_conv/Conv2D_weights", "op": "Const", "attr": {"dtype": {"type": "DT_FLOAT"}, "value": {"tensor": {"dtype": "DT_FLOAT", "tensorShape": {"dim": [{"size": "1"}, {"size": "1"}, {"size": "192"}, {"size": "1152"}]}}}}}, {"name": "StatefulPartitionedCall/model_1/efficientnetb0/block4b_project_conv/Conv2D_weights", "op": "Const", "attr": {"dtype": {"type": "DT_FLOAT"}, "value": {"tensor": {"dtype": "DT_FLOAT", "tensorShape": {"dim": [{"size": "1"}, {"size": "1"}, {"size": "480"}, {"size": "80"}]}}}}}, {"name": "StatefulPartitionedCall/model_1/efficientnetb0/block7a_expand_conv/Conv2D_bn_offset", "op": "Const", "attr": {"value": {"tensor": {"dtype": "DT_FLOAT", "tensorShape": {"dim": [{"size": "1152"}]}}}, "dtype": {"type": "DT_FLOAT"}}}, {"name": "StatefulPartitionedCall/model_1/efficientnetb0/block4b_project_conv/Conv2D_bn_offset", "op": "Const", "attr": {"dtype": {"type": "DT_FLOAT"}, "value": {"tensor": {"dtype": "DT_FLOAT", "tensorShape": {"dim": [{"size": "80"}]}}}}}, {"name": "StatefulPartitionedCall/model_1/efficientnetb0/block4c_expand_conv/Conv2D_weights", "op": "Const", "attr": {"dtype": {"type": "DT_FLOAT"}, "value": {"tensor": {"dtype": "DT_FLOAT", "tensorShape": {"dim": [{"size": "1"}, {"size": "1"}, {"size": "80"}, {"size": "480"}]}}}}}, {"name": "StatefulPartitionedCall/model_1/efficientnetb0/block4c_expand_conv/Conv2D_bn_offset", "op": "Const", "attr": {"value": {"tensor": {"dtype": "DT_FLOAT", "tensorShape": {"dim": [{"size": "480"}]}}}, "dtype": {"type": "DT_FLOAT"}}}, {"name": "StatefulPartitionedCall/model_1/efficientnetb0/block4c_dwconv/depthwise_weights", "op": "Const", "attr": {"value": {"tensor": {"dtype": "DT_FLOAT", "tensorShape": {"dim": [{"size": "3"}, {"size": "3"}, {"size": "480"}, {"size": "1"}]}}}, "dtype": {"type": "DT_FLOAT"}}}, {"name": "StatefulPartitionedCall/model_1/efficientnetb0/block4c_dwconv/depthwise_bn_offset", "op": "Const", "attr": {"dtype": {"type": "DT_FLOAT"}, "value": {"tensor": {"dtype": "DT_FLOAT", "tensorShape": {"dim": [{"size": "480"}]}}}}}, {"name": "StatefulPartitionedCall/model_1/efficientnetb0/block4c_project_conv/Conv2D_weights", "op": "Const", "attr": {"value": {"tensor": {"dtype": "DT_FLOAT", "tensorShape": {"dim": [{"size": "1"}, {"size": "1"}, {"size": "480"}, {"size": "80"}]}}}, "dtype": {"type": "DT_FLOAT"}}}, {"name": "StatefulPartitionedCall/model_1/efficientnetb0/block7a_dwconv/depthwise_weights", "op": "Const", "attr": {"value": {"tensor": {"dtype": "DT_FLOAT", "tensorShape": {"dim": [{"size": "3"}, {"size": "3"}, {"size": "1152"}, {"size": "1"}]}}}, "dtype": {"type": "DT_FLOAT"}}}, {"name": "StatefulPartitionedCall/model_1/efficientnetb0/block4c_project_conv/Conv2D_bn_offset", "op": "Const", "attr": {"value": {"tensor": {"dtype": "DT_FLOAT", "tensorShape": {"dim": [{"size": "80"}]}}}, "dtype": {"type": "DT_FLOAT"}}}, {"name": "StatefulPartitionedCall/model_1/efficientnetb0/block5a_expand_conv/Conv2D_weights", "op": "Const", "attr": {"value": {"tensor": {"dtype": "DT_FLOAT", "tensorShape": {"dim": [{"size": "1"}, {"size": "1"}, {"size": "80"}, {"size": "480"}]}}}, "dtype": {"type": "DT_FLOAT"}}}, {"name": "StatefulPartitionedCall/model_1/efficientnetb0/block5a_expand_conv/Conv2D_bn_offset", "op": "Const", "attr": {"dtype": {"type": "DT_FLOAT"}, "value": {"tensor": {"dtype": "DT_FLOAT", "tensorShape": {"dim": [{"size": "480"}]}}}}}, {"name": "StatefulPartitionedCall/model_1/efficientnetb0/block5a_dwconv/depthwise_weights", "op": "Const", "attr": {"dtype": {"type": "DT_FLOAT"}, "value": {"tensor": {"dtype": "DT_FLOAT", "tensorShape": {"dim": [{"size": "5"}, {"size": "5"}, {"size": "480"}, {"size": "1"}]}}}}}, {"name": "StatefulPartitionedCall/model_1/efficientnetb0/block5a_dwconv/depthwise_bn_offset", "op": "Const", "attr": {"value": {"tensor": {"dtype": "DT_FLOAT", "tensorShape": {"dim": [{"size": "480"}]}}}, "dtype": {"type": "DT_FLOAT"}}}, {"name": "StatefulPartitionedCall/model_1/efficientnetb0/block7a_dwconv/depthwise_bn_offset", "op": "Const", "attr": {"value": {"tensor": {"dtype": "DT_FLOAT", "tensorShape": {"dim": [{"size": "1152"}]}}}, "dtype": {"type": "DT_FLOAT"}}}, {"name": "StatefulPartitionedCall/model_1/efficientnetb0/block5a_project_conv/Conv2D_weights", "op": "Const", "attr": {"value": {"tensor": {"dtype": "DT_FLOAT", "tensorShape": {"dim": [{"size": "1"}, {"size": "1"}, {"size": "480"}, {"size": "112"}]}}}, "dtype": {"type": "DT_FLOAT"}}}, {"name": "StatefulPartitionedCall/model_1/efficientnetb0/block5a_project_conv/Conv2D_bn_offset", "op": "Const", "attr": {"value": {"tensor": {"dtype": "DT_FLOAT", "tensorShape": {"dim": [{"size": "112"}]}}}, "dtype": {"type": "DT_FLOAT"}}}, {"name": "StatefulPartitionedCall/model_1/efficientnetb0/block5b_expand_conv/Conv2D_weights", "op": "Const", "attr": {"value": {"tensor": {"dtype": "DT_FLOAT", "tensorShape": {"dim": [{"size": "1"}, {"size": "1"}, {"size": "112"}, {"size": "672"}]}}}, "dtype": {"type": "DT_FLOAT"}}}, {"name": "StatefulPartitionedCall/model_1/efficientnetb0/block5b_expand_conv/Conv2D_bn_offset", "op": "Const", "attr": {"value": {"tensor": {"dtype": "DT_FLOAT", "tensorShape": {"dim": [{"size": "672"}]}}}, "dtype": {"type": "DT_FLOAT"}}}, {"name": "StatefulPartitionedCall/model_1/efficientnetb0/block5b_dwconv/depthwise_weights", "op": "Const", "attr": {"dtype": {"type": "DT_FLOAT"}, "value": {"tensor": {"dtype": "DT_FLOAT", "tensorShape": {"dim": [{"size": "5"}, {"size": "5"}, {"size": "672"}, {"size": "1"}]}}}}}, {"name": "StatefulPartitionedCall/model_1/efficientnetb0/block5b_dwconv/depthwise_bn_offset", "op": "Const", "attr": {"value": {"tensor": {"dtype": "DT_FLOAT", "tensorShape": {"dim": [{"size": "672"}]}}}, "dtype": {"type": "DT_FLOAT"}}}, {"name": "StatefulPartitionedCall/model_1/efficientnetb0/block5b_project_conv/Conv2D_weights", "op": "Const", "attr": {"value": {"tensor": {"dtype": "DT_FLOAT", "tensorShape": {"dim": [{"size": "1"}, {"size": "1"}, {"size": "672"}, {"size": "112"}]}}}, "dtype": {"type": "DT_FLOAT"}}}, {"name": "StatefulPartitionedCall/model_1/efficientnetb0/block5b_project_conv/Conv2D_bn_offset", "op": "Const", "attr": {"value": {"tensor": {"dtype": "DT_FLOAT", "tensorShape": {"dim": [{"size": "112"}]}}}, "dtype": {"type": "DT_FLOAT"}}}, {"name": "StatefulPartitionedCall/model_1/efficientnetb0/block5c_expand_conv/Conv2D_weights", "op": "Const", "attr": {"value": {"tensor": {"dtype": "DT_FLOAT", "tensorShape": {"dim": [{"size": "1"}, {"size": "1"}, {"size": "112"}, {"size": "672"}]}}}, "dtype": {"type": "DT_FLOAT"}}}, {"name": "StatefulPartitionedCall/model_1/efficientnetb0/block5c_expand_conv/Conv2D_bn_offset", "op": "Const", "attr": {"dtype": {"type": "DT_FLOAT"}, "value": {"tensor": {"dtype": "DT_FLOAT", "tensorShape": {"dim": [{"size": "672"}]}}}}}, {"name": "StatefulPartitionedCall/model_1/efficientnetb0/block5c_dwconv/depthwise_weights", "op": "Const", "attr": {"value": {"tensor": {"dtype": "DT_FLOAT", "tensorShape": {"dim": [{"size": "5"}, {"size": "5"}, {"size": "672"}, {"size": "1"}]}}}, "dtype": {"type": "DT_FLOAT"}}}, {"name": "StatefulPartitionedCall/model_1/efficientnetb0/block5c_dwconv/depthwise_bn_offset", "op": "Const", "attr": {"value": {"tensor": {"dtype": "DT_FLOAT", "tensorShape": {"dim": [{"size": "672"}]}}}, "dtype": {"type": "DT_FLOAT"}}}, {"name": "StatefulPartitionedCall/model_1/efficientnetb0/block5c_project_conv/Conv2D_weights", "op": "Const", "attr": {"value": {"tensor": {"dtype": "DT_FLOAT", "tensorShape": {"dim": [{"size": "1"}, {"size": "1"}, {"size": "672"}, {"size": "112"}]}}}, "dtype": {"type": "DT_FLOAT"}}}, {"name": "StatefulPartitionedCall/model_1/efficientnetb0/block5c_project_conv/Conv2D_bn_offset", "op": "Const", "attr": {"dtype": {"type": "DT_FLOAT"}, "value": {"tensor": {"dtype": "DT_FLOAT", "tensorShape": {"dim": [{"size": "112"}]}}}}}, {"name": "StatefulPartitionedCall/model_1/efficientnetb0/block6a_expand_conv/Conv2D_weights", "op": "Const", "attr": {"value": {"tensor": {"dtype": "DT_FLOAT", "tensorShape": {"dim": [{"size": "1"}, {"size": "1"}, {"size": "112"}, {"size": "672"}]}}}, "dtype": {"type": "DT_FLOAT"}}}, {"name": "StatefulPartitionedCall/model_1/efficientnetb0/block6a_expand_conv/Conv2D_bn_offset", "op": "Const", "attr": {"value": {"tensor": {"dtype": "DT_FLOAT", "tensorShape": {"dim": [{"size": "672"}]}}}, "dtype": {"type": "DT_FLOAT"}}}, {"name": "StatefulPartitionedCall/model_1/efficientnetb0/block6a_dwconv/depthwise_weights", "op": "Const", "attr": {"value": {"tensor": {"dtype": "DT_FLOAT", "tensorShape": {"dim": [{"size": "5"}, {"size": "5"}, {"size": "672"}, {"size": "1"}]}}}, "dtype": {"type": "DT_FLOAT"}}}, {"name": "StatefulPartitionedCall/model_1/efficientnetb0/block6a_dwconv/depthwise_bn_offset", "op": "Const", "attr": {"value": {"tensor": {"dtype": "DT_FLOAT", "tensorShape": {"dim": [{"size": "672"}]}}}, "dtype": {"type": "DT_FLOAT"}}}, {"name": "StatefulPartitionedCall/model_1/efficientnetb0/block6a_project_conv/Conv2D_weights", "op": "Const", "attr": {"dtype": {"type": "DT_FLOAT"}, "value": {"tensor": {"dtype": "DT_FLOAT", "tensorShape": {"dim": [{"size": "1"}, {"size": "1"}, {"size": "672"}, {"size": "192"}]}}}}}, {"name": "StatefulPartitionedCall/model_1/efficientnetb0/block6a_project_conv/Conv2D_bn_offset", "op": "Const", "attr": {"value": {"tensor": {"dtype": "DT_FLOAT", "tensorShape": {"dim": [{"size": "192"}]}}}, "dtype": {"type": "DT_FLOAT"}}}, {"name": "StatefulPartitionedCall/model_1/efficientnetb0/block6b_expand_conv/Conv2D_weights", "op": "Const", "attr": {"dtype": {"type": "DT_FLOAT"}, "value": {"tensor": {"dtype": "DT_FLOAT", "tensorShape": {"dim": [{"size": "1"}, {"size": "1"}, {"size": "192"}, {"size": "1152"}]}}}}}, {"name": "StatefulPartitionedCall/model_1/efficientnetb0/block6b_expand_conv/Conv2D_bn_offset", "op": "Const", "attr": {"value": {"tensor": {"dtype": "DT_FLOAT", "tensorShape": {"dim": [{"size": "1152"}]}}}, "dtype": {"type": "DT_FLOAT"}}}, {"name": "StatefulPartitionedCall/model_1/efficientnetb0/block6b_dwconv/depthwise_weights", "op": "Const", "attr": {"value": {"tensor": {"dtype": "DT_FLOAT", "tensorShape": {"dim": [{"size": "5"}, {"size": "5"}, {"size": "1152"}, {"size": "1"}]}}}, "dtype": {"type": "DT_FLOAT"}}}, {"name": "StatefulPartitionedCall/model_1/efficientnetb0/block6b_dwconv/depthwise_bn_offset", "op": "Const", "attr": {"dtype": {"type": "DT_FLOAT"}, "value": {"tensor": {"dtype": "DT_FLOAT", "tensorShape": {"dim": [{"size": "1152"}]}}}}}, {"name": "StatefulPartitionedCall/model_1/efficientnetb0/block7a_project_conv/Conv2D_weights", "op": "Const", "attr": {"value": {"tensor": {"dtype": "DT_FLOAT", "tensorShape": {"dim": [{"size": "1"}, {"size": "1"}, {"size": "1152"}, {"size": "320"}]}}}, "dtype": {"type": "DT_FLOAT"}}}, {"name": "StatefulPartitionedCall/model_1/efficientnetb0/block6b_project_conv/Conv2D_weights", "op": "Const", "attr": {"value": {"tensor": {"dtype": "DT_FLOAT", "tensorShape": {"dim": [{"size": "1"}, {"size": "1"}, {"size": "1152"}, {"size": "192"}]}}}, "dtype": {"type": "DT_FLOAT"}}}, {"name": "StatefulPartitionedCall/model_1/efficientnetb0/block6b_project_conv/Conv2D_bn_offset", "op": "Const", "attr": {"value": {"tensor": {"dtype": "DT_FLOAT", "tensorShape": {"dim": [{"size": "192"}]}}}, "dtype": {"type": "DT_FLOAT"}}}, {"name": "StatefulPartitionedCall/model_1/efficientnetb0/block6c_expand_conv/Conv2D_weights", "op": "Const", "attr": {"value": {"tensor": {"dtype": "DT_FLOAT", "tensorShape": {"dim": [{"size": "1"}, {"size": "1"}, {"size": "192"}, {"size": "1152"}]}}}, "dtype": {"type": "DT_FLOAT"}}}, {"name": "StatefulPartitionedCall/model_1/efficientnetb0/block7a_project_conv/Conv2D_bn_offset", "op": "Const", "attr": {"dtype": {"type": "DT_FLOAT"}, "value": {"tensor": {"dtype": "DT_FLOAT", "tensorShape": {"dim": [{"size": "320"}]}}}}}, {"name": "StatefulPartitionedCall/model_1/efficientnetb0/block6c_expand_conv/Conv2D_bn_offset", "op": "Const", "attr": {"dtype": {"type": "DT_FLOAT"}, "value": {"tensor": {"dtype": "DT_FLOAT", "tensorShape": {"dim": [{"size": "1152"}]}}}}}, {"name": "StatefulPartitionedCall/model_1/efficientnetb0/block6c_dwconv/depthwise_weights", "op": "Const", "attr": {"value": {"tensor": {"dtype": "DT_FLOAT", "tensorShape": {"dim": [{"size": "5"}, {"size": "5"}, {"size": "1152"}, {"size": "1"}]}}}, "dtype": {"type": "DT_FLOAT"}}}, {"name": "StatefulPartitionedCall/model_1/efficientnetb0/block6c_dwconv/depthwise_bn_offset", "op": "Const", "attr": {"value": {"tensor": {"dtype": "DT_FLOAT", "tensorShape": {"dim": [{"size": "1152"}]}}}, "dtype": {"type": "DT_FLOAT"}}}, {"name": "StatefulPartitionedCall/model_1/efficientnetb0/top_conv/Conv2D_weights", "op": "Const", "attr": {"value": {"tensor": {"dtype": "DT_FLOAT", "tensorShape": {"dim": [{"size": "1"}, {"size": "1"}, {"size": "320"}, {"size": "1280"}]}}}, "dtype": {"type": "DT_FLOAT"}}}, {"name": "StatefulPartitionedCall/model_1/efficientnetb0/block6c_project_conv/Conv2D_weights", "op": "Const", "attr": {"dtype": {"type": "DT_FLOAT"}, "value": {"tensor": {"dtype": "DT_FLOAT", "tensorShape": {"dim": [{"size": "1"}, {"size": "1"}, {"size": "1152"}, {"size": "192"}]}}}}}, {"name": "StatefulPartitionedCall/model_1/efficientnetb0/block6c_project_conv/Conv2D_bn_offset", "op": "Const", "attr": {"dtype": {"type": "DT_FLOAT"}, "value": {"tensor": {"dtype": "DT_FLOAT", "tensorShape": {"dim": [{"size": "192"}]}}}}}, {"name": "StatefulPartitionedCall/model_1/efficientnetb0/block6d_expand_conv/Conv2D_weights", "op": "Const", "attr": {"value": {"tensor": {"dtype": "DT_FLOAT", "tensorShape": {"dim": [{"size": "1"}, {"size": "1"}, {"size": "192"}, {"size": "1152"}]}}}, "dtype": {"type": "DT_FLOAT"}}}, {"name": "StatefulPartitionedCall/model_1/efficientnetb0/top_conv/Conv2D_bn_offset", "op": "Const", "attr": {"value": {"tensor": {"dtype": "DT_FLOAT", "tensorShape": {"dim": [{"size": "1280"}]}}}, "dtype": {"type": "DT_FLOAT"}}}, {"name": "StatefulPartitionedCall/model_1/efficientnetb0/block6d_expand_conv/Conv2D_bn_offset", "op": "Const", "attr": {"value": {"tensor": {"dtype": "DT_FLOAT", "tensorShape": {"dim": [{"size": "1152"}]}}}, "dtype": {"type": "DT_FLOAT"}}}, {"name": "StatefulPartitionedCall/model_1/efficientnetb0/rescaling_1/mul", "op": "Mul", "input": ["input", "StatefulPartitionedCall/model_1/efficientnetb0/rescaling_1/Cast/x"], "attr": {"T": {"type": "DT_FLOAT"}}}, {"name": "StatefulPartitionedCall/model_1/efficientnetb0/normalization_1/sub", "op": "Add", "input": ["StatefulPartitionedCall/model_1/efficientnetb0/rescaling_1/mul", "StatefulPartitionedCall/model_1/efficientnetb0/rescaling_1/add"], "attr": {"T": {"type": "DT_FLOAT"}}}, {"name": "StatefulPartitionedCall/model_1/efficientnetb0/normalization_1/truediv", "op": "Mul", "input": ["StatefulPartitionedCall/model_1/efficientnetb0/normalization_1/sub", "ConstantFolding/StatefulPartitionedCall/model_1/efficientnetb0/normalization_1/truediv_recip"], "attr": {"T": {"type": "DT_FLOAT"}}}, {"name": "StatefulPartitionedCall/model_1/efficientnetb0/stem_conv_pad/Pad", "op": "Pad", "input": ["StatefulPartitionedCall/model_1/efficientnetb0/normalization_1/truediv", "StatefulPartitionedCall/model_1/efficientnetb0/stem_conv_pad/Pad/paddings"], "attr": {"Tpaddings": {"type": "DT_INT32"}, "T": {"type": "DT_FLOAT"}}}, {"name": "StatefulPartitionedCall/model_1/efficientnetb0/stem_bn/FusedBatchNormV3", "op": "_FusedConv2D", "input": ["StatefulPartitionedCall/model_1/efficientnetb0/stem_conv_pad/Pad", "StatefulPartitionedCall/model_1/efficientnetb0/stem_conv/Conv2D_weights", "StatefulPartitionedCall/model_1/efficientnetb0/stem_conv/Conv2D_bn_offset"], "device": "/device:CPU:0", "attr": {"use_cudnn_on_gpu": {"b": true}, "explicit_paddings": {"list": {}}, "data_format": {"s": "TkhXQw=="}, "padding": {"s": "VkFMSUQ="}, "fused_ops": {"list": {"s": ["Qmlhc0FkZA=="]}}, "num_args": {"i": "1"}, "epsilon": {"f": 0.0}, "T": {"type": "DT_FLOAT"}, "strides": {"list": {"i": ["1", "2", "2", "1"]}}, "dilations": {"list": {"i": ["1", "1", "1", "1"]}}}}, {"name": "StatefulPartitionedCall/model_1/efficientnetb0/stem_activation/Sigmoid", "op": "Sigmoid", "input": ["StatefulPartitionedCall/model_1/efficientnetb0/stem_bn/FusedBatchNormV3"], "attr": {"T": {"type": "DT_FLOAT"}}}, {"name": "StatefulPartitionedCall/model_1/efficientnetb0/stem_activation/mul", "op": "Mul", "input": ["StatefulPartitionedCall/model_1/efficientnetb0/stem_bn/FusedBatchNormV3", "StatefulPartitionedCall/model_1/efficientnetb0/stem_activation/Sigmoid"], "attr": {"T": {"type": "DT_FLOAT"}}}, {"name": "StatefulPartitionedCall/model_1/efficientnetb0/block1a_dwconv/depthwise", "op": "FusedDepthwiseConv2dNative", "input": ["StatefulPartitionedCall/model_1/efficientnetb0/stem_activation/mul", "StatefulPartitionedCall/model_1/efficientnetb0/block1a_dwconv/depthwise_weights", "StatefulPartitionedCall/model_1/efficientnetb0/block1a_dwconv/depthwise_bn_offset"], "attr": {"data_format": {"s": "TkhXQw=="}, "padding": {"s": "U0FNRQ=="}, "T": {"type": "DT_FLOAT"}, "strides": {"list": {"i": ["1", "1", "1", "1"]}}, "dilations": {"list": {"i": ["1", "1", "1", "1"]}}, "num_args": {"i": "1"}, "fused_ops": {"list": {"s": ["Qmlhc0FkZA=="]}}, "explicit_paddings": {"list": {}}}}, {"name": "StatefulPartitionedCall/model_1/efficientnetb0/block1a_activation/Sigmoid", "op": "Sigmoid", "input": ["StatefulPartitionedCall/model_1/efficientnetb0/block1a_dwconv/depthwise"], "attr": {"T": {"type": "DT_FLOAT"}}}, {"name": "StatefulPartitionedCall/model_1/efficientnetb0/block1a_activation/mul", "op": "Mul", "input": ["StatefulPartitionedCall/model_1/efficientnetb0/block1a_dwconv/depthwise", "StatefulPartitionedCall/model_1/efficientnetb0/block1a_activation/Sigmoid"], "attr": {"T": {"type": "DT_FLOAT"}}}, {"name": "StatefulPartitionedCall/model_1/efficientnetb0/block1a_se_squeeze/Mean", "op": "Mean", "input": ["StatefulPartitionedCall/model_1/efficientnetb0/block1a_activation/mul", "StatefulPartitionedCall/model_1/efficientnetb0/block1a_se_squeeze/Mean/reduction_indices"], "attr": {"T": {"type": "DT_FLOAT"}, "keep_dims": {"b": false}, "Tidx": {"type": "DT_INT32"}}}, {"name": "StatefulPartitionedCall/model_1/efficientnetb0/block1a_se_reshape/Shape", "op": "Shape", "input": ["StatefulPartitionedCall/model_1/efficientnetb0/block1a_se_squeeze/Mean"], "attr": {"out_type": {"type": "DT_INT32"}, "T": {"type": "DT_FLOAT"}}}, {"name": "StatefulPartitionedCall/model_1/efficientnetb0/block1a_se_reshape/strided_slice", "op": "StridedSlice", "input": ["StatefulPartitionedCall/model_1/efficientnetb0/block1a_se_reshape/Shape", "StatefulPartitionedCall/model_1/efficientnetb0/block1a_se_reshape/strided_slice/stack", "StatefulPartitionedCall/model_1/efficientnetb0/block1a_se_reshape/strided_slice/stack_1", "StatefulPartitionedCall/model_1/efficientnetb0/block1a_se_reshape/strided_slice/stack_2"], "attr": {"T": {"type": "DT_INT32"}, "begin_mask": {"i": "0"}, "new_axis_mask": {"i": "0"}, "ellipsis_mask": {"i": "0"}, "shrink_axis_mask": {"i": "1"}, "end_mask": {"i": "0"}, "Index": {"type": "DT_INT32"}}}, {"name": "StatefulPartitionedCall/model_1/efficientnetb0/block1a_se_reshape/Reshape/shape", "op": "Pack", "input": ["StatefulPartitionedCall/model_1/efficientnetb0/block1a_se_reshape/strided_slice", "StatefulPartitionedCall/model_1/efficientnetb0/block1a_se_reshape/Reshape/shape/1", "StatefulPartitionedCall/model_1/efficientnetb0/block1a_se_reshape/Reshape/shape/2", "StatefulPartitionedCall/model_1/efficientnetb0/block1a_se_reshape/Reshape/shape/3"], "attr": {"axis": {"i": "0"}, "T": {"type": "DT_INT32"}, "N": {"i": "4"}}}, {"name": "StatefulPartitionedCall/model_1/efficientnetb0/block1a_se_reshape/Reshape", "op": "Reshape", "input": ["StatefulPartitionedCall/model_1/efficientnetb0/block1a_se_squeeze/Mean", "StatefulPartitionedCall/model_1/efficientnetb0/block1a_se_reshape/Reshape/shape"], "attr": {"Tshape": {"type": "DT_INT32"}, "T": {"type": "DT_FLOAT"}}}, {"name": "StatefulPartitionedCall/model_1/efficientnetb0/block1a_se_reduce/BiasAdd", "op": "_FusedConv2D", "input": ["StatefulPartitionedCall/model_1/efficientnetb0/block1a_se_reshape/Reshape", "StatefulPartitionedCall/model_1/efficientnetb0/block1a_se_reduce/Conv2D/ReadVariableOp", "StatefulPartitionedCall/model_1/efficientnetb0/block1a_se_reduce/BiasAdd/ReadVariableOp"], "device": "/device:CPU:0", "attr": {"strides": {"list": {"i": ["1", "1", "1", "1"]}}, "use_cudnn_on_gpu": {"b": true}, "fused_ops": {"list": {"s": ["Qmlhc0FkZA=="]}}, "T": {"type": "DT_FLOAT"}, "epsilon": {"f": 0.0}, "padding": {"s": "U0FNRQ=="}, "num_args": {"i": "1"}, "dilations": {"list": {"i": ["1", "1", "1", "1"]}}, "explicit_paddings": {"list": {}}, "data_format": {"s": "TkhXQw=="}}}, {"name": "StatefulPartitionedCall/model_1/efficientnetb0/block1a_se_reduce/Sigmoid", "op": "Sigmoid", "input": ["StatefulPartitionedCall/model_1/efficientnetb0/block1a_se_reduce/BiasAdd"], "attr": {"T": {"type": "DT_FLOAT"}}}, {"name": "StatefulPartitionedCall/model_1/efficientnetb0/block1a_se_reduce/mul", "op": "Mul", "input": ["StatefulPartitionedCall/model_1/efficientnetb0/block1a_se_reduce/BiasAdd", "StatefulPartitionedCall/model_1/efficientnetb0/block1a_se_reduce/Sigmoid"], "attr": {"T": {"type": "DT_FLOAT"}}}, {"name": "StatefulPartitionedCall/model_1/efficientnetb0/block1a_se_expand/BiasAdd", "op": "_FusedConv2D", "input": ["StatefulPartitionedCall/model_1/efficientnetb0/block1a_se_reduce/mul", "StatefulPartitionedCall/model_1/efficientnetb0/block1a_se_expand/Conv2D/ReadVariableOp", "StatefulPartitionedCall/model_1/efficientnetb0/block1a_se_expand/BiasAdd/ReadVariableOp"], "device": "/device:CPU:0", "attr": {"use_cudnn_on_gpu": {"b": true}, "fused_ops": {"list": {"s": ["Qmlhc0FkZA=="]}}, "data_format": {"s": "TkhXQw=="}, "strides": {"list": {"i": ["1", "1", "1", "1"]}}, "explicit_paddings": {"list": {}}, "epsilon": {"f": 0.0}, "dilations": {"list": {"i": ["1", "1", "1", "1"]}}, "padding": {"s": "U0FNRQ=="}, "num_args": {"i": "1"}, "T": {"type": "DT_FLOAT"}}}, {"name": "StatefulPartitionedCall/model_1/efficientnetb0/block1a_se_expand/Sigmoid", "op": "Sigmoid", "input": ["StatefulPartitionedCall/model_1/efficientnetb0/block1a_se_expand/BiasAdd"], "attr": {"T": {"type": "DT_FLOAT"}}}, {"name": "StatefulPartitionedCall/model_1/efficientnetb0/block1a_se_excite/mul", "op": "Mul", "input": ["StatefulPartitionedCall/model_1/efficientnetb0/block1a_activation/mul", "StatefulPartitionedCall/model_1/efficientnetb0/block1a_se_expand/Sigmoid"], "attr": {"T": {"type": "DT_FLOAT"}}}, {"name": "StatefulPartitionedCall/model_1/efficientnetb0/block1a_project_bn/FusedBatchNormV3", "op": "_FusedConv2D", "input": ["StatefulPartitionedCall/model_1/efficientnetb0/block1a_se_excite/mul", "StatefulPartitionedCall/model_1/efficientnetb0/block1a_project_conv/Conv2D_weights", "StatefulPartitionedCall/model_1/efficientnetb0/block1a_project_conv/Conv2D_bn_offset"], "device": "/device:CPU:0", "attr": {"data_format": {"s": "TkhXQw=="}, "fused_ops": {"list": {"s": ["Qmlhc0FkZA=="]}}, "explicit_paddings": {"list": {}}, "T": {"type": "DT_FLOAT"}, "epsilon": {"f": 0.0}, "strides": {"list": {"i": ["1", "1", "1", "1"]}}, "dilations": {"list": {"i": ["1", "1", "1", "1"]}}, "num_args": {"i": "1"}, "padding": {"s": "U0FNRQ=="}, "use_cudnn_on_gpu": {"b": true}}}, {"name": "StatefulPartitionedCall/model_1/efficientnetb0/block2a_expand_bn/FusedBatchNormV3", "op": "_FusedConv2D", "input": ["StatefulPartitionedCall/model_1/efficientnetb0/block1a_project_bn/FusedBatchNormV3", "StatefulPartitionedCall/model_1/efficientnetb0/block2a_expand_conv/Conv2D_weights", "StatefulPartitionedCall/model_1/efficientnetb0/block2a_expand_conv/Conv2D_bn_offset"], "device": "/device:CPU:0", "attr": {"fused_ops": {"list": {"s": ["Qmlhc0FkZA=="]}}, "use_cudnn_on_gpu": {"b": true}, "T": {"type": "DT_FLOAT"}, "explicit_paddings": {"list": {}}, "data_format": {"s": "TkhXQw=="}, "epsilon": {"f": 0.0}, "strides": {"list": {"i": ["1", "1", "1", "1"]}}, "padding": {"s": "U0FNRQ=="}, "dilations": {"list": {"i": ["1", "1", "1", "1"]}}, "num_args": {"i": "1"}}}, {"name": "StatefulPartitionedCall/model_1/efficientnetb0/block2a_expand_activation/Sigmoid", "op": "Sigmoid", "input": ["StatefulPartitionedCall/model_1/efficientnetb0/block2a_expand_bn/FusedBatchNormV3"], "attr": {"T": {"type": "DT_FLOAT"}}}, {"name": "StatefulPartitionedCall/model_1/efficientnetb0/block2a_expand_activation/mul", "op": "Mul", "input": ["StatefulPartitionedCall/model_1/efficientnetb0/block2a_expand_bn/FusedBatchNormV3", "StatefulPartitionedCall/model_1/efficientnetb0/block2a_expand_activation/Sigmoid"], "attr": {"T": {"type": "DT_FLOAT"}}}, {"name": "StatefulPartitionedCall/model_1/efficientnetb0/block2a_dwconv_pad/Pad", "op": "Pad", "input": ["StatefulPartitionedCall/model_1/efficientnetb0/block2a_expand_activation/mul", "StatefulPartitionedCall/model_1/efficientnetb0/block2a_dwconv_pad/Pad/paddings"], "attr": {"Tpaddings": {"type": "DT_INT32"}, "T": {"type": "DT_FLOAT"}}}, {"name": "StatefulPartitionedCall/model_1/efficientnetb0/block2a_dwconv/depthwise", "op": "FusedDepthwiseConv2dNative", "input": ["StatefulPartitionedCall/model_1/efficientnetb0/block2a_dwconv_pad/Pad", "StatefulPartitionedCall/model_1/efficientnetb0/block2a_dwconv/depthwise_weights", "StatefulPartitionedCall/model_1/efficientnetb0/block2a_dwconv/depthwise_bn_offset"], "attr": {"dilations": {"list": {"i": ["1", "1", "1", "1"]}}, "fused_ops": {"list": {"s": ["Qmlhc0FkZA=="]}}, "num_args": {"i": "1"}, "strides": {"list": {"i": ["1", "2", "2", "1"]}}, "explicit_paddings": {"list": {}}, "padding": {"s": "VkFMSUQ="}, "data_format": {"s": "TkhXQw=="}, "T": {"type": "DT_FLOAT"}}}, {"name": "StatefulPartitionedCall/model_1/efficientnetb0/block2a_activation/Sigmoid", "op": "Sigmoid", "input": ["StatefulPartitionedCall/model_1/efficientnetb0/block2a_dwconv/depthwise"], "attr": {"T": {"type": "DT_FLOAT"}}}, {"name": "StatefulPartitionedCall/model_1/efficientnetb0/block2a_activation/mul", "op": "Mul", "input": ["StatefulPartitionedCall/model_1/efficientnetb0/block2a_dwconv/depthwise", "StatefulPartitionedCall/model_1/efficientnetb0/block2a_activation/Sigmoid"], "attr": {"T": {"type": "DT_FLOAT"}}}, {"name": "StatefulPartitionedCall/model_1/efficientnetb0/block2a_se_squeeze/Mean", "op": "Mean", "input": ["StatefulPartitionedCall/model_1/efficientnetb0/block2a_activation/mul", "StatefulPartitionedCall/model_1/efficientnetb0/block2a_se_squeeze/Mean/reduction_indices"], "attr": {"Tidx": {"type": "DT_INT32"}, "keep_dims": {"b": false}, "T": {"type": "DT_FLOAT"}}}, {"name": "StatefulPartitionedCall/model_1/efficientnetb0/block2a_se_reshape/Shape", "op": "Shape", "input": ["StatefulPartitionedCall/model_1/efficientnetb0/block2a_se_squeeze/Mean"], "attr": {"out_type": {"type": "DT_INT32"}, "T": {"type": "DT_FLOAT"}}}, {"name": "StatefulPartitionedCall/model_1/efficientnetb0/block2a_se_reshape/strided_slice", "op": "StridedSlice", "input": ["StatefulPartitionedCall/model_1/efficientnetb0/block2a_se_reshape/Shape", "StatefulPartitionedCall/model_1/efficientnetb0/block2a_se_reshape/strided_slice/stack", "StatefulPartitionedCall/model_1/efficientnetb0/block2a_se_reshape/strided_slice/stack_1", "StatefulPartitionedCall/model_1/efficientnetb0/block2a_se_reshape/strided_slice/stack_2"], "attr": {"Index": {"type": "DT_INT32"}, "end_mask": {"i": "0"}, "new_axis_mask": {"i": "0"}, "T": {"type": "DT_INT32"}, "shrink_axis_mask": {"i": "1"}, "begin_mask": {"i": "0"}, "ellipsis_mask": {"i": "0"}}}, {"name": "StatefulPartitionedCall/model_1/efficientnetb0/block2a_se_reshape/Reshape/shape", "op": "Pack", "input": ["StatefulPartitionedCall/model_1/efficientnetb0/block2a_se_reshape/strided_slice", "StatefulPartitionedCall/model_1/efficientnetb0/block2a_se_reshape/Reshape/shape/1", "StatefulPartitionedCall/model_1/efficientnetb0/block2a_se_reshape/Reshape/shape/2", "StatefulPartitionedCall/model_1/efficientnetb0/block2a_se_reshape/Reshape/shape/3"], "attr": {"T": {"type": "DT_INT32"}, "axis": {"i": "0"}, "N": {"i": "4"}}}, {"name": "StatefulPartitionedCall/model_1/efficientnetb0/block2a_se_reshape/Reshape", "op": "Reshape", "input": ["StatefulPartitionedCall/model_1/efficientnetb0/block2a_se_squeeze/Mean", "StatefulPartitionedCall/model_1/efficientnetb0/block2a_se_reshape/Reshape/shape"], "attr": {"T": {"type": "DT_FLOAT"}, "Tshape": {"type": "DT_INT32"}}}, {"name": "StatefulPartitionedCall/model_1/efficientnetb0/block2a_se_reduce/BiasAdd", "op": "_FusedConv2D", "input": ["StatefulPartitionedCall/model_1/efficientnetb0/block2a_se_reshape/Reshape", "StatefulPartitionedCall/model_1/efficientnetb0/block2a_se_reduce/Conv2D/ReadVariableOp", "StatefulPartitionedCall/model_1/efficientnetb0/block2a_se_reduce/BiasAdd/ReadVariableOp"], "device": "/device:CPU:0", "attr": {"use_cudnn_on_gpu": {"b": true}, "data_format": {"s": "TkhXQw=="}, "explicit_paddings": {"list": {}}, "epsilon": {"f": 0.0}, "strides": {"list": {"i": ["1", "1", "1", "1"]}}, "padding": {"s": "U0FNRQ=="}, "dilations": {"list": {"i": ["1", "1", "1", "1"]}}, "fused_ops": {"list": {"s": ["Qmlhc0FkZA=="]}}, "num_args": {"i": "1"}, "T": {"type": "DT_FLOAT"}}}, {"name": "StatefulPartitionedCall/model_1/efficientnetb0/block2a_se_reduce/Sigmoid", "op": "Sigmoid", "input": ["StatefulPartitionedCall/model_1/efficientnetb0/block2a_se_reduce/BiasAdd"], "attr": {"T": {"type": "DT_FLOAT"}}}, {"name": "StatefulPartitionedCall/model_1/efficientnetb0/block2a_se_reduce/mul", "op": "Mul", "input": ["StatefulPartitionedCall/model_1/efficientnetb0/block2a_se_reduce/BiasAdd", "StatefulPartitionedCall/model_1/efficientnetb0/block2a_se_reduce/Sigmoid"], "attr": {"T": {"type": "DT_FLOAT"}}}, {"name": "StatefulPartitionedCall/model_1/efficientnetb0/block2a_se_expand/BiasAdd", "op": "_FusedConv2D", "input": ["StatefulPartitionedCall/model_1/efficientnetb0/block2a_se_reduce/mul", "StatefulPartitionedCall/model_1/efficientnetb0/block2a_se_expand/Conv2D/ReadVariableOp", "StatefulPartitionedCall/model_1/efficientnetb0/block2a_se_expand/BiasAdd/ReadVariableOp"], "device": "/device:CPU:0", "attr": {"epsilon": {"f": 0.0}, "explicit_paddings": {"list": {}}, "padding": {"s": "U0FNRQ=="}, "dilations": {"list": {"i": ["1", "1", "1", "1"]}}, "T": {"type": "DT_FLOAT"}, "num_args": {"i": "1"}, "data_format": {"s": "TkhXQw=="}, "fused_ops": {"list": {"s": ["Qmlhc0FkZA=="]}}, "use_cudnn_on_gpu": {"b": true}, "strides": {"list": {"i": ["1", "1", "1", "1"]}}}}, {"name": "StatefulPartitionedCall/model_1/efficientnetb0/block2a_se_expand/Sigmoid", "op": "Sigmoid", "input": ["StatefulPartitionedCall/model_1/efficientnetb0/block2a_se_expand/BiasAdd"], "attr": {"T": {"type": "DT_FLOAT"}}}, {"name": "StatefulPartitionedCall/model_1/efficientnetb0/block2a_se_excite/mul", "op": "Mul", "input": ["StatefulPartitionedCall/model_1/efficientnetb0/block2a_activation/mul", "StatefulPartitionedCall/model_1/efficientnetb0/block2a_se_expand/Sigmoid"], "attr": {"T": {"type": "DT_FLOAT"}}}, {"name": "StatefulPartitionedCall/model_1/efficientnetb0/block2a_project_bn/FusedBatchNormV3", "op": "_FusedConv2D", "input": ["StatefulPartitionedCall/model_1/efficientnetb0/block2a_se_excite/mul", "StatefulPartitionedCall/model_1/efficientnetb0/block2a_project_conv/Conv2D_weights", "StatefulPartitionedCall/model_1/efficientnetb0/block2a_project_conv/Conv2D_bn_offset"], "device": "/device:CPU:0", "attr": {"num_args": {"i": "1"}, "padding": {"s": "U0FNRQ=="}, "epsilon": {"f": 0.0}, "use_cudnn_on_gpu": {"b": true}, "dilations": {"list": {"i": ["1", "1", "1", "1"]}}, "explicit_paddings": {"list": {}}, "strides": {"list": {"i": ["1", "1", "1", "1"]}}, "T": {"type": "DT_FLOAT"}, "data_format": {"s": "TkhXQw=="}, "fused_ops": {"list": {"s": ["Qmlhc0FkZA=="]}}}}, {"name": "StatefulPartitionedCall/model_1/efficientnetb0/block2b_expand_bn/FusedBatchNormV3", "op": "_FusedConv2D", "input": ["StatefulPartitionedCall/model_1/efficientnetb0/block2a_project_bn/FusedBatchNormV3", "StatefulPartitionedCall/model_1/efficientnetb0/block2b_expand_conv/Conv2D_weights", "StatefulPartitionedCall/model_1/efficientnetb0/block2b_expand_conv/Conv2D_bn_offset"], "device": "/device:CPU:0", "attr": {"num_args": {"i": "1"}, "epsilon": {"f": 0.0}, "use_cudnn_on_gpu": {"b": true}, "dilations": {"list": {"i": ["1", "1", "1", "1"]}}, "T": {"type": "DT_FLOAT"}, "explicit_paddings": {"list": {}}, "fused_ops": {"list": {"s": ["Qmlhc0FkZA=="]}}, "strides": {"list": {"i": ["1", "1", "1", "1"]}}, "data_format": {"s": "TkhXQw=="}, "padding": {"s": "U0FNRQ=="}}}, {"name": "StatefulPartitionedCall/model_1/efficientnetb0/block2b_expand_activation/Sigmoid", "op": "Sigmoid", "input": ["StatefulPartitionedCall/model_1/efficientnetb0/block2b_expand_bn/FusedBatchNormV3"], "attr": {"T": {"type": "DT_FLOAT"}}}, {"name": "StatefulPartitionedCall/model_1/efficientnetb0/block2b_expand_activation/mul", "op": "Mul", "input": ["StatefulPartitionedCall/model_1/efficientnetb0/block2b_expand_bn/FusedBatchNormV3", "StatefulPartitionedCall/model_1/efficientnetb0/block2b_expand_activation/Sigmoid"], "attr": {"T": {"type": "DT_FLOAT"}}}, {"name": "StatefulPartitionedCall/model_1/efficientnetb0/block2b_dwconv/depthwise", "op": "FusedDepthwiseConv2dNative", "input": ["StatefulPartitionedCall/model_1/efficientnetb0/block2b_expand_activation/mul", "StatefulPartitionedCall/model_1/efficientnetb0/block2b_dwconv/depthwise_weights", "StatefulPartitionedCall/model_1/efficientnetb0/block2b_dwconv/depthwise_bn_offset"], "attr": {"data_format": {"s": "TkhXQw=="}, "explicit_paddings": {"list": {}}, "dilations": {"list": {"i": ["1", "1", "1", "1"]}}, "padding": {"s": "U0FNRQ=="}, "strides": {"list": {"i": ["1", "1", "1", "1"]}}, "num_args": {"i": "1"}, "fused_ops": {"list": {"s": ["Qmlhc0FkZA=="]}}, "T": {"type": "DT_FLOAT"}}}, {"name": "StatefulPartitionedCall/model_1/efficientnetb0/block2b_activation/Sigmoid", "op": "Sigmoid", "input": ["StatefulPartitionedCall/model_1/efficientnetb0/block2b_dwconv/depthwise"], "attr": {"T": {"type": "DT_FLOAT"}}}, {"name": "StatefulPartitionedCall/model_1/efficientnetb0/block2b_activation/mul", "op": "Mul", "input": ["StatefulPartitionedCall/model_1/efficientnetb0/block2b_dwconv/depthwise", "StatefulPartitionedCall/model_1/efficientnetb0/block2b_activation/Sigmoid"], "attr": {"T": {"type": "DT_FLOAT"}}}, {"name": "StatefulPartitionedCall/model_1/efficientnetb0/block2b_se_squeeze/Mean", "op": "Mean", "input": ["StatefulPartitionedCall/model_1/efficientnetb0/block2b_activation/mul", "StatefulPartitionedCall/model_1/efficientnetb0/block2b_se_squeeze/Mean/reduction_indices"], "attr": {"T": {"type": "DT_FLOAT"}, "keep_dims": {"b": false}, "Tidx": {"type": "DT_INT32"}}}, {"name": "StatefulPartitionedCall/model_1/efficientnetb0/block2b_se_reshape/Shape", "op": "Shape", "input": ["StatefulPartitionedCall/model_1/efficientnetb0/block2b_se_squeeze/Mean"], "attr": {"out_type": {"type": "DT_INT32"}, "T": {"type": "DT_FLOAT"}}}, {"name": "StatefulPartitionedCall/model_1/efficientnetb0/block2b_se_reshape/strided_slice", "op": "StridedSlice", "input": ["StatefulPartitionedCall/model_1/efficientnetb0/block2b_se_reshape/Shape", "StatefulPartitionedCall/model_1/efficientnetb0/block2b_se_reshape/strided_slice/stack", "StatefulPartitionedCall/model_1/efficientnetb0/block2b_se_reshape/strided_slice/stack_1", "StatefulPartitionedCall/model_1/efficientnetb0/block2b_se_reshape/strided_slice/stack_2"], "attr": {"end_mask": {"i": "0"}, "T": {"type": "DT_INT32"}, "shrink_axis_mask": {"i": "1"}, "begin_mask": {"i": "0"}, "new_axis_mask": {"i": "0"}, "ellipsis_mask": {"i": "0"}, "Index": {"type": "DT_INT32"}}}, {"name": "StatefulPartitionedCall/model_1/efficientnetb0/block2b_se_reshape/Reshape/shape", "op": "Pack", "input": ["StatefulPartitionedCall/model_1/efficientnetb0/block2b_se_reshape/strided_slice", "StatefulPartitionedCall/model_1/efficientnetb0/block2b_se_reshape/Reshape/shape/1", "StatefulPartitionedCall/model_1/efficientnetb0/block2b_se_reshape/Reshape/shape/2", "StatefulPartitionedCall/model_1/efficientnetb0/block2b_se_reshape/Reshape/shape/3"], "attr": {"T": {"type": "DT_INT32"}, "N": {"i": "4"}, "axis": {"i": "0"}}}, {"name": "StatefulPartitionedCall/model_1/efficientnetb0/block2b_se_reshape/Reshape", "op": "Reshape", "input": ["StatefulPartitionedCall/model_1/efficientnetb0/block2b_se_squeeze/Mean", "StatefulPartitionedCall/model_1/efficientnetb0/block2b_se_reshape/Reshape/shape"], "attr": {"Tshape": {"type": "DT_INT32"}, "T": {"type": "DT_FLOAT"}}}, {"name": "StatefulPartitionedCall/model_1/efficientnetb0/block2b_se_reduce/BiasAdd", "op": "_FusedConv2D", "input": ["StatefulPartitionedCall/model_1/efficientnetb0/block2b_se_reshape/Reshape", "StatefulPartitionedCall/model_1/efficientnetb0/block2b_se_reduce/Conv2D/ReadVariableOp", "StatefulPartitionedCall/model_1/efficientnetb0/block2b_se_reduce/BiasAdd/ReadVariableOp"], "device": "/device:CPU:0", "attr": {"padding": {"s": "U0FNRQ=="}, "dilations": {"list": {"i": ["1", "1", "1", "1"]}}, "strides": {"list": {"i": ["1", "1", "1", "1"]}}, "fused_ops": {"list": {"s": ["Qmlhc0FkZA=="]}}, "num_args": {"i": "1"}, "T": {"type": "DT_FLOAT"}, "data_format": {"s": "TkhXQw=="}, "use_cudnn_on_gpu": {"b": true}, "epsilon": {"f": 0.0}, "explicit_paddings": {"list": {}}}}, {"name": "StatefulPartitionedCall/model_1/efficientnetb0/block2b_se_reduce/Sigmoid", "op": "Sigmoid", "input": ["StatefulPartitionedCall/model_1/efficientnetb0/block2b_se_reduce/BiasAdd"], "attr": {"T": {"type": "DT_FLOAT"}}}, {"name": "StatefulPartitionedCall/model_1/efficientnetb0/block2b_se_reduce/mul", "op": "Mul", "input": ["StatefulPartitionedCall/model_1/efficientnetb0/block2b_se_reduce/BiasAdd", "StatefulPartitionedCall/model_1/efficientnetb0/block2b_se_reduce/Sigmoid"], "attr": {"T": {"type": "DT_FLOAT"}}}, {"name": "StatefulPartitionedCall/model_1/efficientnetb0/block2b_se_expand/BiasAdd", "op": "_FusedConv2D", "input": ["StatefulPartitionedCall/model_1/efficientnetb0/block2b_se_reduce/mul", "StatefulPartitionedCall/model_1/efficientnetb0/block2b_se_expand/Conv2D/ReadVariableOp", "StatefulPartitionedCall/model_1/efficientnetb0/block2b_se_expand/BiasAdd/ReadVariableOp"], "device": "/device:CPU:0", "attr": {"strides": {"list": {"i": ["1", "1", "1", "1"]}}, "padding": {"s": "U0FNRQ=="}, "num_args": {"i": "1"}, "use_cudnn_on_gpu": {"b": true}, "data_format": {"s": "TkhXQw=="}, "fused_ops": {"list": {"s": ["Qmlhc0FkZA=="]}}, "explicit_paddings": {"list": {}}, "epsilon": {"f": 0.0}, "dilations": {"list": {"i": ["1", "1", "1", "1"]}}, "T": {"type": "DT_FLOAT"}}}, {"name": "StatefulPartitionedCall/model_1/efficientnetb0/block2b_se_expand/Sigmoid", "op": "Sigmoid", "input": ["StatefulPartitionedCall/model_1/efficientnetb0/block2b_se_expand/BiasAdd"], "attr": {"T": {"type": "DT_FLOAT"}}}, {"name": "StatefulPartitionedCall/model_1/efficientnetb0/block2b_se_excite/mul", "op": "Mul", "input": ["StatefulPartitionedCall/model_1/efficientnetb0/block2b_activation/mul", "StatefulPartitionedCall/model_1/efficientnetb0/block2b_se_expand/Sigmoid"], "attr": {"T": {"type": "DT_FLOAT"}}}, {"name": "StatefulPartitionedCall/model_1/efficientnetb0/block2b_project_bn/FusedBatchNormV3", "op": "_FusedConv2D", "input": ["StatefulPartitionedCall/model_1/efficientnetb0/block2b_se_excite/mul", "StatefulPartitionedCall/model_1/efficientnetb0/block2b_project_conv/Conv2D_weights", "StatefulPartitionedCall/model_1/efficientnetb0/block2b_project_conv/Conv2D_bn_offset"], "device": "/device:CPU:0", "attr": {"strides": {"list": {"i": ["1", "1", "1", "1"]}}, "epsilon": {"f": 0.0}, "T": {"type": "DT_FLOAT"}, "explicit_paddings": {"list": {}}, "dilations": {"list": {"i": ["1", "1", "1", "1"]}}, "fused_ops": {"list": {"s": ["Qmlhc0FkZA=="]}}, "num_args": {"i": "1"}, "data_format": {"s": "TkhXQw=="}, "use_cudnn_on_gpu": {"b": true}, "padding": {"s": "U0FNRQ=="}}}, {"name": "StatefulPartitionedCall/model_1/efficientnetb0/block2b_add/add", "op": "AddV2", "input": ["StatefulPartitionedCall/model_1/efficientnetb0/block2b_project_bn/FusedBatchNormV3", "StatefulPartitionedCall/model_1/efficientnetb0/block2a_project_bn/FusedBatchNormV3"], "attr": {"T": {"type": "DT_FLOAT"}}}, {"name": "StatefulPartitionedCall/model_1/efficientnetb0/block3a_expand_bn/FusedBatchNormV3", "op": "_FusedConv2D", "input": ["StatefulPartitionedCall/model_1/efficientnetb0/block2b_add/add", "StatefulPartitionedCall/model_1/efficientnetb0/block3a_expand_conv/Conv2D_weights", "StatefulPartitionedCall/model_1/efficientnetb0/block3a_expand_conv/Conv2D_bn_offset"], "device": "/device:CPU:0", "attr": {"num_args": {"i": "1"}, "use_cudnn_on_gpu": {"b": true}, "T": {"type": "DT_FLOAT"}, "data_format": {"s": "TkhXQw=="}, "explicit_paddings": {"list": {}}, "epsilon": {"f": 0.0}, "padding": {"s": "U0FNRQ=="}, "dilations": {"list": {"i": ["1", "1", "1", "1"]}}, "strides": {"list": {"i": ["1", "1", "1", "1"]}}, "fused_ops": {"list": {"s": ["Qmlhc0FkZA=="]}}}}, {"name": "StatefulPartitionedCall/model_1/efficientnetb0/block3a_expand_activation/Sigmoid", "op": "Sigmoid", "input": ["StatefulPartitionedCall/model_1/efficientnetb0/block3a_expand_bn/FusedBatchNormV3"], "attr": {"T": {"type": "DT_FLOAT"}}}, {"name": "StatefulPartitionedCall/model_1/efficientnetb0/block3a_expand_activation/mul", "op": "Mul", "input": ["StatefulPartitionedCall/model_1/efficientnetb0/block3a_expand_bn/FusedBatchNormV3", "StatefulPartitionedCall/model_1/efficientnetb0/block3a_expand_activation/Sigmoid"], "attr": {"T": {"type": "DT_FLOAT"}}}, {"name": "StatefulPartitionedCall/model_1/efficientnetb0/block3a_dwconv_pad/Pad", "op": "Pad", "input": ["StatefulPartitionedCall/model_1/efficientnetb0/block3a_expand_activation/mul", "StatefulPartitionedCall/model_1/efficientnetb0/block3a_dwconv_pad/Pad/paddings"], "attr": {"T": {"type": "DT_FLOAT"}, "Tpaddings": {"type": "DT_INT32"}}}, {"name": "StatefulPartitionedCall/model_1/efficientnetb0/block3a_dwconv/depthwise", "op": "FusedDepthwiseConv2dNative", "input": ["StatefulPartitionedCall/model_1/efficientnetb0/block3a_dwconv_pad/Pad", "StatefulPartitionedCall/model_1/efficientnetb0/block3a_dwconv/depthwise_weights", "StatefulPartitionedCall/model_1/efficientnetb0/block3a_dwconv/depthwise_bn_offset"], "attr": {"explicit_paddings": {"list": {}}, "T": {"type": "DT_FLOAT"}, "dilations": {"list": {"i": ["1", "1", "1", "1"]}}, "fused_ops": {"list": {"s": ["Qmlhc0FkZA=="]}}, "num_args": {"i": "1"}, "data_format": {"s": "TkhXQw=="}, "padding": {"s": "VkFMSUQ="}, "strides": {"list": {"i": ["1", "2", "2", "1"]}}}}, {"name": "StatefulPartitionedCall/model_1/efficientnetb0/block3a_activation/Sigmoid", "op": "Sigmoid", "input": ["StatefulPartitionedCall/model_1/efficientnetb0/block3a_dwconv/depthwise"], "attr": {"T": {"type": "DT_FLOAT"}}}, {"name": "StatefulPartitionedCall/model_1/efficientnetb0/block3a_activation/mul", "op": "Mul", "input": ["StatefulPartitionedCall/model_1/efficientnetb0/block3a_dwconv/depthwise", "StatefulPartitionedCall/model_1/efficientnetb0/block3a_activation/Sigmoid"], "attr": {"T": {"type": "DT_FLOAT"}}}, {"name": "StatefulPartitionedCall/model_1/efficientnetb0/block3a_se_squeeze/Mean", "op": "Mean", "input": ["StatefulPartitionedCall/model_1/efficientnetb0/block3a_activation/mul", "StatefulPartitionedCall/model_1/efficientnetb0/block3a_se_squeeze/Mean/reduction_indices"], "attr": {"T": {"type": "DT_FLOAT"}, "keep_dims": {"b": false}, "Tidx": {"type": "DT_INT32"}}}, {"name": "StatefulPartitionedCall/model_1/efficientnetb0/block3a_se_reshape/Shape", "op": "Shape", "input": ["StatefulPartitionedCall/model_1/efficientnetb0/block3a_se_squeeze/Mean"], "attr": {"out_type": {"type": "DT_INT32"}, "T": {"type": "DT_FLOAT"}}}, {"name": "StatefulPartitionedCall/model_1/efficientnetb0/block3a_se_reshape/strided_slice", "op": "StridedSlice", "input": ["StatefulPartitionedCall/model_1/efficientnetb0/block3a_se_reshape/Shape", "StatefulPartitionedCall/model_1/efficientnetb0/block3a_se_reshape/strided_slice/stack", "StatefulPartitionedCall/model_1/efficientnetb0/block3a_se_reshape/strided_slice/stack_1", "StatefulPartitionedCall/model_1/efficientnetb0/block3a_se_reshape/strided_slice/stack_2"], "attr": {"new_axis_mask": {"i": "0"}, "T": {"type": "DT_INT32"}, "shrink_axis_mask": {"i": "1"}, "ellipsis_mask": {"i": "0"}, "Index": {"type": "DT_INT32"}, "end_mask": {"i": "0"}, "begin_mask": {"i": "0"}}}, {"name": "StatefulPartitionedCall/model_1/efficientnetb0/block3a_se_reshape/Reshape/shape", "op": "Pack", "input": ["StatefulPartitionedCall/model_1/efficientnetb0/block3a_se_reshape/strided_slice", "StatefulPartitionedCall/model_1/efficientnetb0/block3a_se_reshape/Reshape/shape/1", "StatefulPartitionedCall/model_1/efficientnetb0/block3a_se_reshape/Reshape/shape/2", "StatefulPartitionedCall/model_1/efficientnetb0/block3a_se_reshape/Reshape/shape/3"], "attr": {"axis": {"i": "0"}, "T": {"type": "DT_INT32"}, "N": {"i": "4"}}}, {"name": "StatefulPartitionedCall/model_1/efficientnetb0/block3a_se_reshape/Reshape", "op": "Reshape", "input": ["StatefulPartitionedCall/model_1/efficientnetb0/block3a_se_squeeze/Mean", "StatefulPartitionedCall/model_1/efficientnetb0/block3a_se_reshape/Reshape/shape"], "attr": {"Tshape": {"type": "DT_INT32"}, "T": {"type": "DT_FLOAT"}}}, {"name": "StatefulPartitionedCall/model_1/efficientnetb0/block3a_se_reduce/BiasAdd", "op": "_FusedConv2D", "input": ["StatefulPartitionedCall/model_1/efficientnetb0/block3a_se_reshape/Reshape", "StatefulPartitionedCall/model_1/efficientnetb0/block3a_se_reduce/Conv2D/ReadVariableOp", "StatefulPartitionedCall/model_1/efficientnetb0/block3a_se_reduce/BiasAdd/ReadVariableOp"], "device": "/device:CPU:0", "attr": {"T": {"type": "DT_FLOAT"}, "fused_ops": {"list": {"s": ["Qmlhc0FkZA=="]}}, "num_args": {"i": "1"}, "data_format": {"s": "TkhXQw=="}, "strides": {"list": {"i": ["1", "1", "1", "1"]}}, "use_cudnn_on_gpu": {"b": true}, "explicit_paddings": {"list": {}}, "epsilon": {"f": 0.0}, "padding": {"s": "U0FNRQ=="}, "dilations": {"list": {"i": ["1", "1", "1", "1"]}}}}, {"name": "StatefulPartitionedCall/model_1/efficientnetb0/block3a_se_reduce/Sigmoid", "op": "Sigmoid", "input": ["StatefulPartitionedCall/model_1/efficientnetb0/block3a_se_reduce/BiasAdd"], "attr": {"T": {"type": "DT_FLOAT"}}}, {"name": "StatefulPartitionedCall/model_1/efficientnetb0/block3a_se_reduce/mul", "op": "Mul", "input": ["StatefulPartitionedCall/model_1/efficientnetb0/block3a_se_reduce/BiasAdd", "StatefulPartitionedCall/model_1/efficientnetb0/block3a_se_reduce/Sigmoid"], "attr": {"T": {"type": "DT_FLOAT"}}}, {"name": "StatefulPartitionedCall/model_1/efficientnetb0/block3a_se_expand/BiasAdd", "op": "_FusedConv2D", "input": ["StatefulPartitionedCall/model_1/efficientnetb0/block3a_se_reduce/mul", "StatefulPartitionedCall/model_1/efficientnetb0/block3a_se_expand/Conv2D/ReadVariableOp", "StatefulPartitionedCall/model_1/efficientnetb0/block3a_se_expand/BiasAdd/ReadVariableOp"], "device": "/device:CPU:0", "attr": {"T": {"type": "DT_FLOAT"}, "epsilon": {"f": 0.0}, "explicit_paddings": {"list": {}}, "dilations": {"list": {"i": ["1", "1", "1", "1"]}}, "strides": {"list": {"i": ["1", "1", "1", "1"]}}, "num_args": {"i": "1"}, "fused_ops": {"list": {"s": ["Qmlhc0FkZA=="]}}, "padding": {"s": "U0FNRQ=="}, "data_format": {"s": "TkhXQw=="}, "use_cudnn_on_gpu": {"b": true}}}, {"name": "StatefulPartitionedCall/model_1/efficientnetb0/block3a_se_expand/Sigmoid", "op": "Sigmoid", "input": ["StatefulPartitionedCall/model_1/efficientnetb0/block3a_se_expand/BiasAdd"], "attr": {"T": {"type": "DT_FLOAT"}}}, {"name": "StatefulPartitionedCall/model_1/efficientnetb0/block3a_se_excite/mul", "op": "Mul", "input": ["StatefulPartitionedCall/model_1/efficientnetb0/block3a_activation/mul", "StatefulPartitionedCall/model_1/efficientnetb0/block3a_se_expand/Sigmoid"], "attr": {"T": {"type": "DT_FLOAT"}}}, {"name": "StatefulPartitionedCall/model_1/efficientnetb0/block3a_project_bn/FusedBatchNormV3", "op": "_FusedConv2D", "input": ["StatefulPartitionedCall/model_1/efficientnetb0/block3a_se_excite/mul", "StatefulPartitionedCall/model_1/efficientnetb0/block3a_project_conv/Conv2D_weights", "StatefulPartitionedCall/model_1/efficientnetb0/block3a_project_conv/Conv2D_bn_offset"], "device": "/device:CPU:0", "attr": {"epsilon": {"f": 0.0}, "strides": {"list": {"i": ["1", "1", "1", "1"]}}, "use_cudnn_on_gpu": {"b": true}, "num_args": {"i": "1"}, "padding": {"s": "U0FNRQ=="}, "fused_ops": {"list": {"s": ["Qmlhc0FkZA=="]}}, "explicit_paddings": {"list": {}}, "data_format": {"s": "TkhXQw=="}, "T": {"type": "DT_FLOAT"}, "dilations": {"list": {"i": ["1", "1", "1", "1"]}}}}, {"name": "StatefulPartitionedCall/model_1/efficientnetb0/block3b_expand_bn/FusedBatchNormV3", "op": "_FusedConv2D", "input": ["StatefulPartitionedCall/model_1/efficientnetb0/block3a_project_bn/FusedBatchNormV3", "StatefulPartitionedCall/model_1/efficientnetb0/block3b_expand_conv/Conv2D_weights", "StatefulPartitionedCall/model_1/efficientnetb0/block3b_expand_conv/Conv2D_bn_offset"], "device": "/device:CPU:0", "attr": {"padding": {"s": "U0FNRQ=="}, "strides": {"list": {"i": ["1", "1", "1", "1"]}}, "explicit_paddings": {"list": {}}, "T": {"type": "DT_FLOAT"}, "epsilon": {"f": 0.0}, "dilations": {"list": {"i": ["1", "1", "1", "1"]}}, "num_args": {"i": "1"}, "fused_ops": {"list": {"s": ["Qmlhc0FkZA=="]}}, "use_cudnn_on_gpu": {"b": true}, "data_format": {"s": "TkhXQw=="}}}, {"name": "StatefulPartitionedCall/model_1/efficientnetb0/block3b_expand_activation/Sigmoid", "op": "Sigmoid", "input": ["StatefulPartitionedCall/model_1/efficientnetb0/block3b_expand_bn/FusedBatchNormV3"], "attr": {"T": {"type": "DT_FLOAT"}}}, {"name": "StatefulPartitionedCall/model_1/efficientnetb0/block3b_expand_activation/mul", "op": "Mul", "input": ["StatefulPartitionedCall/model_1/efficientnetb0/block3b_expand_bn/FusedBatchNormV3", "StatefulPartitionedCall/model_1/efficientnetb0/block3b_expand_activation/Sigmoid"], "attr": {"T": {"type": "DT_FLOAT"}}}, {"name": "StatefulPartitionedCall/model_1/efficientnetb0/block3b_dwconv/depthwise", "op": "FusedDepthwiseConv2dNative", "input": ["StatefulPartitionedCall/model_1/efficientnetb0/block3b_expand_activation/mul", "StatefulPartitionedCall/model_1/efficientnetb0/block3b_dwconv/depthwise_weights", "StatefulPartitionedCall/model_1/efficientnetb0/block3b_dwconv/depthwise_bn_offset"], "attr": {"fused_ops": {"list": {"s": ["Qmlhc0FkZA=="]}}, "data_format": {"s": "TkhXQw=="}, "dilations": {"list": {"i": ["1", "1", "1", "1"]}}, "num_args": {"i": "1"}, "strides": {"list": {"i": ["1", "1", "1", "1"]}}, "explicit_paddings": {"list": {}}, "T": {"type": "DT_FLOAT"}, "padding": {"s": "U0FNRQ=="}}}, {"name": "StatefulPartitionedCall/model_1/efficientnetb0/block3b_activation/Sigmoid", "op": "Sigmoid", "input": ["StatefulPartitionedCall/model_1/efficientnetb0/block3b_dwconv/depthwise"], "attr": {"T": {"type": "DT_FLOAT"}}}, {"name": "StatefulPartitionedCall/model_1/efficientnetb0/block3b_activation/mul", "op": "Mul", "input": ["StatefulPartitionedCall/model_1/efficientnetb0/block3b_dwconv/depthwise", "StatefulPartitionedCall/model_1/efficientnetb0/block3b_activation/Sigmoid"], "attr": {"T": {"type": "DT_FLOAT"}}}, {"name": "StatefulPartitionedCall/model_1/efficientnetb0/block3b_se_squeeze/Mean", "op": "Mean", "input": ["StatefulPartitionedCall/model_1/efficientnetb0/block3b_activation/mul", "StatefulPartitionedCall/model_1/efficientnetb0/block3b_se_squeeze/Mean/reduction_indices"], "attr": {"T": {"type": "DT_FLOAT"}, "keep_dims": {"b": false}, "Tidx": {"type": "DT_INT32"}}}, {"name": "StatefulPartitionedCall/model_1/efficientnetb0/block3b_se_reshape/Shape", "op": "Shape", "input": ["StatefulPartitionedCall/model_1/efficientnetb0/block3b_se_squeeze/Mean"], "attr": {"out_type": {"type": "DT_INT32"}, "T": {"type": "DT_FLOAT"}}}, {"name": "StatefulPartitionedCall/model_1/efficientnetb0/block3b_se_reshape/strided_slice", "op": "StridedSlice", "input": ["StatefulPartitionedCall/model_1/efficientnetb0/block3b_se_reshape/Shape", "StatefulPartitionedCall/model_1/efficientnetb0/block3b_se_reshape/strided_slice/stack", "StatefulPartitionedCall/model_1/efficientnetb0/block3b_se_reshape/strided_slice/stack_1", "StatefulPartitionedCall/model_1/efficientnetb0/block3b_se_reshape/strided_slice/stack_2"], "attr": {"T": {"type": "DT_INT32"}, "shrink_axis_mask": {"i": "1"}, "end_mask": {"i": "0"}, "new_axis_mask": {"i": "0"}, "begin_mask": {"i": "0"}, "Index": {"type": "DT_INT32"}, "ellipsis_mask": {"i": "0"}}}, {"name": "StatefulPartitionedCall/model_1/efficientnetb0/block3b_se_reshape/Reshape/shape", "op": "Pack", "input": ["StatefulPartitionedCall/model_1/efficientnetb0/block3b_se_reshape/strided_slice", "StatefulPartitionedCall/model_1/efficientnetb0/block3b_se_reshape/Reshape/shape/1", "StatefulPartitionedCall/model_1/efficientnetb0/block3b_se_reshape/Reshape/shape/2", "StatefulPartitionedCall/model_1/efficientnetb0/block3b_se_reshape/Reshape/shape/3"], "attr": {"axis": {"i": "0"}, "T": {"type": "DT_INT32"}, "N": {"i": "4"}}}, {"name": "StatefulPartitionedCall/model_1/efficientnetb0/block3b_se_reshape/Reshape", "op": "Reshape", "input": ["StatefulPartitionedCall/model_1/efficientnetb0/block3b_se_squeeze/Mean", "StatefulPartitionedCall/model_1/efficientnetb0/block3b_se_reshape/Reshape/shape"], "attr": {"Tshape": {"type": "DT_INT32"}, "T": {"type": "DT_FLOAT"}}}, {"name": "StatefulPartitionedCall/model_1/efficientnetb0/block3b_se_reduce/BiasAdd", "op": "_FusedConv2D", "input": ["StatefulPartitionedCall/model_1/efficientnetb0/block3b_se_reshape/Reshape", "StatefulPartitionedCall/model_1/efficientnetb0/block3b_se_reduce/Conv2D/ReadVariableOp", "StatefulPartitionedCall/model_1/efficientnetb0/block3b_se_reduce/BiasAdd/ReadVariableOp"], "device": "/device:CPU:0", "attr": {"epsilon": {"f": 0.0}, "num_args": {"i": "1"}, "explicit_paddings": {"list": {}}, "padding": {"s": "U0FNRQ=="}, "data_format": {"s": "TkhXQw=="}, "dilations": {"list": {"i": ["1", "1", "1", "1"]}}, "strides": {"list": {"i": ["1", "1", "1", "1"]}}, "T": {"type": "DT_FLOAT"}, "use_cudnn_on_gpu": {"b": true}, "fused_ops": {"list": {"s": ["Qmlhc0FkZA=="]}}}}, {"name": "StatefulPartitionedCall/model_1/efficientnetb0/block3b_se_reduce/Sigmoid", "op": "Sigmoid", "input": ["StatefulPartitionedCall/model_1/efficientnetb0/block3b_se_reduce/BiasAdd"], "attr": {"T": {"type": "DT_FLOAT"}}}, {"name": "StatefulPartitionedCall/model_1/efficientnetb0/block3b_se_reduce/mul", "op": "Mul", "input": ["StatefulPartitionedCall/model_1/efficientnetb0/block3b_se_reduce/BiasAdd", "StatefulPartitionedCall/model_1/efficientnetb0/block3b_se_reduce/Sigmoid"], "attr": {"T": {"type": "DT_FLOAT"}}}, {"name": "StatefulPartitionedCall/model_1/efficientnetb0/block3b_se_expand/BiasAdd", "op": "_FusedConv2D", "input": ["StatefulPartitionedCall/model_1/efficientnetb0/block3b_se_reduce/mul", "StatefulPartitionedCall/model_1/efficientnetb0/block3b_se_expand/Conv2D/ReadVariableOp", "StatefulPartitionedCall/model_1/efficientnetb0/block3b_se_expand/BiasAdd/ReadVariableOp"], "device": "/device:CPU:0", "attr": {"T": {"type": "DT_FLOAT"}, "strides": {"list": {"i": ["1", "1", "1", "1"]}}, "explicit_paddings": {"list": {}}, "padding": {"s": "U0FNRQ=="}, "use_cudnn_on_gpu": {"b": true}, "fused_ops": {"list": {"s": ["Qmlhc0FkZA=="]}}, "data_format": {"s": "TkhXQw=="}, "epsilon": {"f": 0.0}, "num_args": {"i": "1"}, "dilations": {"list": {"i": ["1", "1", "1", "1"]}}}}, {"name": "StatefulPartitionedCall/model_1/efficientnetb0/block3b_se_expand/Sigmoid", "op": "Sigmoid", "input": ["StatefulPartitionedCall/model_1/efficientnetb0/block3b_se_expand/BiasAdd"], "attr": {"T": {"type": "DT_FLOAT"}}}, {"name": "StatefulPartitionedCall/model_1/efficientnetb0/block3b_se_excite/mul", "op": "Mul", "input": ["StatefulPartitionedCall/model_1/efficientnetb0/block3b_activation/mul", "StatefulPartitionedCall/model_1/efficientnetb0/block3b_se_expand/Sigmoid"], "attr": {"T": {"type": "DT_FLOAT"}}}, {"name": "StatefulPartitionedCall/model_1/efficientnetb0/block3b_project_bn/FusedBatchNormV3", "op": "_FusedConv2D", "input": ["StatefulPartitionedCall/model_1/efficientnetb0/block3b_se_excite/mul", "StatefulPartitionedCall/model_1/efficientnetb0/block3b_project_conv/Conv2D_weights", "StatefulPartitionedCall/model_1/efficientnetb0/block3b_project_conv/Conv2D_bn_offset"], "device": "/device:CPU:0", "attr": {"T": {"type": "DT_FLOAT"}, "use_cudnn_on_gpu": {"b": true}, "padding": {"s": "U0FNRQ=="}, "epsilon": {"f": 0.0}, "strides": {"list": {"i": ["1", "1", "1", "1"]}}, "dilations": {"list": {"i": ["1", "1", "1", "1"]}}, "data_format": {"s": "TkhXQw=="}, "explicit_paddings": {"list": {}}, "num_args": {"i": "1"}, "fused_ops": {"list": {"s": ["Qmlhc0FkZA=="]}}}}, {"name": "StatefulPartitionedCall/model_1/efficientnetb0/block3b_add/add", "op": "AddV2", "input": ["StatefulPartitionedCall/model_1/efficientnetb0/block3b_project_bn/FusedBatchNormV3", "StatefulPartitionedCall/model_1/efficientnetb0/block3a_project_bn/FusedBatchNormV3"], "attr": {"T": {"type": "DT_FLOAT"}}}, {"name": "StatefulPartitionedCall/model_1/efficientnetb0/block4a_expand_bn/FusedBatchNormV3", "op": "_FusedConv2D", "input": ["StatefulPartitionedCall/model_1/efficientnetb0/block3b_add/add", "StatefulPartitionedCall/model_1/efficientnetb0/block4a_expand_conv/Conv2D_weights", "StatefulPartitionedCall/model_1/efficientnetb0/block4a_expand_conv/Conv2D_bn_offset"], "device": "/device:CPU:0", "attr": {"padding": {"s": "U0FNRQ=="}, "use_cudnn_on_gpu": {"b": true}, "epsilon": {"f": 0.0}, "num_args": {"i": "1"}, "strides": {"list": {"i": ["1", "1", "1", "1"]}}, "fused_ops": {"list": {"s": ["Qmlhc0FkZA=="]}}, "data_format": {"s": "TkhXQw=="}, "T": {"type": "DT_FLOAT"}, "explicit_paddings": {"list": {}}, "dilations": {"list": {"i": ["1", "1", "1", "1"]}}}}, {"name": "StatefulPartitionedCall/model_1/efficientnetb0/block4a_expand_activation/Sigmoid", "op": "Sigmoid", "input": ["StatefulPartitionedCall/model_1/efficientnetb0/block4a_expand_bn/FusedBatchNormV3"], "attr": {"T": {"type": "DT_FLOAT"}}}, {"name": "StatefulPartitionedCall/model_1/efficientnetb0/block4a_expand_activation/mul", "op": "Mul", "input": ["StatefulPartitionedCall/model_1/efficientnetb0/block4a_expand_bn/FusedBatchNormV3", "StatefulPartitionedCall/model_1/efficientnetb0/block4a_expand_activation/Sigmoid"], "attr": {"T": {"type": "DT_FLOAT"}}}, {"name": "StatefulPartitionedCall/model_1/efficientnetb0/block4a_dwconv_pad/Pad", "op": "Pad", "input": ["StatefulPartitionedCall/model_1/efficientnetb0/block4a_expand_activation/mul", "StatefulPartitionedCall/model_1/efficientnetb0/block4a_dwconv_pad/Pad/paddings"], "attr": {"Tpaddings": {"type": "DT_INT32"}, "T": {"type": "DT_FLOAT"}}}, {"name": "StatefulPartitionedCall/model_1/efficientnetb0/block4a_dwconv/depthwise", "op": "FusedDepthwiseConv2dNative", "input": ["StatefulPartitionedCall/model_1/efficientnetb0/block4a_dwconv_pad/Pad", "StatefulPartitionedCall/model_1/efficientnetb0/block4a_dwconv/depthwise_weights", "StatefulPartitionedCall/model_1/efficientnetb0/block4a_dwconv/depthwise_bn_offset"], "attr": {"padding": {"s": "VkFMSUQ="}, "num_args": {"i": "1"}, "fused_ops": {"list": {"s": ["Qmlhc0FkZA=="]}}, "T": {"type": "DT_FLOAT"}, "data_format": {"s": "TkhXQw=="}, "explicit_paddings": {"list": {}}, "strides": {"list": {"i": ["1", "2", "2", "1"]}}, "dilations": {"list": {"i": ["1", "1", "1", "1"]}}}}, {"name": "StatefulPartitionedCall/model_1/efficientnetb0/block4a_activation/Sigmoid", "op": "Sigmoid", "input": ["StatefulPartitionedCall/model_1/efficientnetb0/block4a_dwconv/depthwise"], "attr": {"T": {"type": "DT_FLOAT"}}}, {"name": "StatefulPartitionedCall/model_1/efficientnetb0/block4a_activation/mul", "op": "Mul", "input": ["StatefulPartitionedCall/model_1/efficientnetb0/block4a_dwconv/depthwise", "StatefulPartitionedCall/model_1/efficientnetb0/block4a_activation/Sigmoid"], "attr": {"T": {"type": "DT_FLOAT"}}}, {"name": "StatefulPartitionedCall/model_1/efficientnetb0/block4a_se_squeeze/Mean", "op": "Mean", "input": ["StatefulPartitionedCall/model_1/efficientnetb0/block4a_activation/mul", "StatefulPartitionedCall/model_1/efficientnetb0/block4a_se_squeeze/Mean/reduction_indices"], "attr": {"T": {"type": "DT_FLOAT"}, "keep_dims": {"b": false}, "Tidx": {"type": "DT_INT32"}}}, {"name": "StatefulPartitionedCall/model_1/efficientnetb0/block4a_se_reshape/Shape", "op": "Shape", "input": ["StatefulPartitionedCall/model_1/efficientnetb0/block4a_se_squeeze/Mean"], "attr": {"out_type": {"type": "DT_INT32"}, "T": {"type": "DT_FLOAT"}}}, {"name": "StatefulPartitionedCall/model_1/efficientnetb0/block4a_se_reshape/strided_slice", "op": "StridedSlice", "input": ["StatefulPartitionedCall/model_1/efficientnetb0/block4a_se_reshape/Shape", "StatefulPartitionedCall/model_1/efficientnetb0/block4a_se_reshape/strided_slice/stack", "StatefulPartitionedCall/model_1/efficientnetb0/block4a_se_reshape/strided_slice/stack_1", "StatefulPartitionedCall/model_1/efficientnetb0/block4a_se_reshape/strided_slice/stack_2"], "attr": {"end_mask": {"i": "0"}, "begin_mask": {"i": "0"}, "Index": {"type": "DT_INT32"}, "shrink_axis_mask": {"i": "1"}, "T": {"type": "DT_INT32"}, "ellipsis_mask": {"i": "0"}, "new_axis_mask": {"i": "0"}}}, {"name": "StatefulPartitionedCall/model_1/efficientnetb0/block4a_se_reshape/Reshape/shape", "op": "Pack", "input": ["StatefulPartitionedCall/model_1/efficientnetb0/block4a_se_reshape/strided_slice", "StatefulPartitionedCall/model_1/efficientnetb0/block4a_se_reshape/Reshape/shape/1", "StatefulPartitionedCall/model_1/efficientnetb0/block4a_se_reshape/Reshape/shape/2", "StatefulPartitionedCall/model_1/efficientnetb0/block4a_se_reshape/Reshape/shape/3"], "attr": {"N": {"i": "4"}, "axis": {"i": "0"}, "T": {"type": "DT_INT32"}}}, {"name": "StatefulPartitionedCall/model_1/efficientnetb0/block4a_se_reshape/Reshape", "op": "Reshape", "input": ["StatefulPartitionedCall/model_1/efficientnetb0/block4a_se_squeeze/Mean", "StatefulPartitionedCall/model_1/efficientnetb0/block4a_se_reshape/Reshape/shape"], "attr": {"T": {"type": "DT_FLOAT"}, "Tshape": {"type": "DT_INT32"}}}, {"name": "StatefulPartitionedCall/model_1/efficientnetb0/block4a_se_reduce/BiasAdd", "op": "_FusedConv2D", "input": ["StatefulPartitionedCall/model_1/efficientnetb0/block4a_se_reshape/Reshape", "StatefulPartitionedCall/model_1/efficientnetb0/block4a_se_reduce/Conv2D/ReadVariableOp", "StatefulPartitionedCall/model_1/efficientnetb0/block4a_se_reduce/BiasAdd/ReadVariableOp"], "device": "/device:CPU:0", "attr": {"fused_ops": {"list": {"s": ["Qmlhc0FkZA=="]}}, "dilations": {"list": {"i": ["1", "1", "1", "1"]}}, "strides": {"list": {"i": ["1", "1", "1", "1"]}}, "padding": {"s": "U0FNRQ=="}, "use_cudnn_on_gpu": {"b": true}, "epsilon": {"f": 0.0}, "num_args": {"i": "1"}, "T": {"type": "DT_FLOAT"}, "explicit_paddings": {"list": {}}, "data_format": {"s": "TkhXQw=="}}}, {"name": "StatefulPartitionedCall/model_1/efficientnetb0/block4a_se_reduce/Sigmoid", "op": "Sigmoid", "input": ["StatefulPartitionedCall/model_1/efficientnetb0/block4a_se_reduce/BiasAdd"], "attr": {"T": {"type": "DT_FLOAT"}}}, {"name": "StatefulPartitionedCall/model_1/efficientnetb0/block4a_se_reduce/mul", "op": "Mul", "input": ["StatefulPartitionedCall/model_1/efficientnetb0/block4a_se_reduce/BiasAdd", "StatefulPartitionedCall/model_1/efficientnetb0/block4a_se_reduce/Sigmoid"], "attr": {"T": {"type": "DT_FLOAT"}}}, {"name": "StatefulPartitionedCall/model_1/efficientnetb0/block4a_se_expand/BiasAdd", "op": "_FusedConv2D", "input": ["StatefulPartitionedCall/model_1/efficientnetb0/block4a_se_reduce/mul", "StatefulPartitionedCall/model_1/efficientnetb0/block4a_se_expand/Conv2D/ReadVariableOp", "StatefulPartitionedCall/model_1/efficientnetb0/block4a_se_expand/BiasAdd/ReadVariableOp"], "device": "/device:CPU:0", "attr": {"fused_ops": {"list": {"s": ["Qmlhc0FkZA=="]}}, "use_cudnn_on_gpu": {"b": true}, "data_format": {"s": "TkhXQw=="}, "epsilon": {"f": 0.0}, "num_args": {"i": "1"}, "dilations": {"list": {"i": ["1", "1", "1", "1"]}}, "strides": {"list": {"i": ["1", "1", "1", "1"]}}, "T": {"type": "DT_FLOAT"}, "explicit_paddings": {"list": {}}, "padding": {"s": "U0FNRQ=="}}}, {"name": "StatefulPartitionedCall/model_1/efficientnetb0/block4a_se_expand/Sigmoid", "op": "Sigmoid", "input": ["StatefulPartitionedCall/model_1/efficientnetb0/block4a_se_expand/BiasAdd"], "attr": {"T": {"type": "DT_FLOAT"}}}, {"name": "StatefulPartitionedCall/model_1/efficientnetb0/block4a_se_excite/mul", "op": "Mul", "input": ["StatefulPartitionedCall/model_1/efficientnetb0/block4a_activation/mul", "StatefulPartitionedCall/model_1/efficientnetb0/block4a_se_expand/Sigmoid"], "attr": {"T": {"type": "DT_FLOAT"}}}, {"name": "StatefulPartitionedCall/model_1/efficientnetb0/block4a_project_bn/FusedBatchNormV3", "op": "_FusedConv2D", "input": ["StatefulPartitionedCall/model_1/efficientnetb0/block4a_se_excite/mul", "StatefulPartitionedCall/model_1/efficientnetb0/block4a_project_conv/Conv2D_weights", "StatefulPartitionedCall/model_1/efficientnetb0/block4a_project_conv/Conv2D_bn_offset"], "device": "/device:CPU:0", "attr": {"strides": {"list": {"i": ["1", "1", "1", "1"]}}, "fused_ops": {"list": {"s": ["Qmlhc0FkZA=="]}}, "use_cudnn_on_gpu": {"b": true}, "data_format": {"s": "TkhXQw=="}, "epsilon": {"f": 0.0}, "explicit_paddings": {"list": {}}, "padding": {"s": "U0FNRQ=="}, "T": {"type": "DT_FLOAT"}, "num_args": {"i": "1"}, "dilations": {"list": {"i": ["1", "1", "1", "1"]}}}}, {"name": "StatefulPartitionedCall/model_1/efficientnetb0/block4b_expand_bn/FusedBatchNormV3", "op": "_FusedConv2D", "input": ["StatefulPartitionedCall/model_1/efficientnetb0/block4a_project_bn/FusedBatchNormV3", "StatefulPartitionedCall/model_1/efficientnetb0/block4b_expand_conv/Conv2D_weights", "StatefulPartitionedCall/model_1/efficientnetb0/block4b_expand_conv/Conv2D_bn_offset"], "device": "/device:CPU:0", "attr": {"padding": {"s": "U0FNRQ=="}, "epsilon": {"f": 0.0}, "data_format": {"s": "TkhXQw=="}, "strides": {"list": {"i": ["1", "1", "1", "1"]}}, "num_args": {"i": "1"}, "dilations": {"list": {"i": ["1", "1", "1", "1"]}}, "explicit_paddings": {"list": {}}, "fused_ops": {"list": {"s": ["Qmlhc0FkZA=="]}}, "T": {"type": "DT_FLOAT"}, "use_cudnn_on_gpu": {"b": true}}}, {"name": "StatefulPartitionedCall/model_1/efficientnetb0/block4b_expand_activation/Sigmoid", "op": "Sigmoid", "input": ["StatefulPartitionedCall/model_1/efficientnetb0/block4b_expand_bn/FusedBatchNormV3"], "attr": {"T": {"type": "DT_FLOAT"}}}, {"name": "StatefulPartitionedCall/model_1/efficientnetb0/block4b_expand_activation/mul", "op": "Mul", "input": ["StatefulPartitionedCall/model_1/efficientnetb0/block4b_expand_bn/FusedBatchNormV3", "StatefulPartitionedCall/model_1/efficientnetb0/block4b_expand_activation/Sigmoid"], "attr": {"T": {"type": "DT_FLOAT"}}}, {"name": "StatefulPartitionedCall/model_1/efficientnetb0/block4b_dwconv/depthwise", "op": "FusedDepthwiseConv2dNative", "input": ["StatefulPartitionedCall/model_1/efficientnetb0/block4b_expand_activation/mul", "StatefulPartitionedCall/model_1/efficientnetb0/block4b_dwconv/depthwise_weights", "StatefulPartitionedCall/model_1/efficientnetb0/block4b_dwconv/depthwise_bn_offset"], "attr": {"num_args": {"i": "1"}, "strides": {"list": {"i": ["1", "1", "1", "1"]}}, "data_format": {"s": "TkhXQw=="}, "padding": {"s": "U0FNRQ=="}, "explicit_paddings": {"list": {}}, "fused_ops": {"list": {"s": ["Qmlhc0FkZA=="]}}, "dilations": {"list": {"i": ["1", "1", "1", "1"]}}, "T": {"type": "DT_FLOAT"}}}, {"name": "StatefulPartitionedCall/model_1/efficientnetb0/block4b_activation/Sigmoid", "op": "Sigmoid", "input": ["StatefulPartitionedCall/model_1/efficientnetb0/block4b_dwconv/depthwise"], "attr": {"T": {"type": "DT_FLOAT"}}}, {"name": "StatefulPartitionedCall/model_1/efficientnetb0/block4b_activation/mul", "op": "Mul", "input": ["StatefulPartitionedCall/model_1/efficientnetb0/block4b_dwconv/depthwise", "StatefulPartitionedCall/model_1/efficientnetb0/block4b_activation/Sigmoid"], "attr": {"T": {"type": "DT_FLOAT"}}}, {"name": "StatefulPartitionedCall/model_1/efficientnetb0/block4b_se_squeeze/Mean", "op": "Mean", "input": ["StatefulPartitionedCall/model_1/efficientnetb0/block4b_activation/mul", "StatefulPartitionedCall/model_1/efficientnetb0/block4b_se_squeeze/Mean/reduction_indices"], "attr": {"keep_dims": {"b": false}, "Tidx": {"type": "DT_INT32"}, "T": {"type": "DT_FLOAT"}}}, {"name": "StatefulPartitionedCall/model_1/efficientnetb0/block4b_se_reshape/Shape", "op": "Shape", "input": ["StatefulPartitionedCall/model_1/efficientnetb0/block4b_se_squeeze/Mean"], "attr": {"out_type": {"type": "DT_INT32"}, "T": {"type": "DT_FLOAT"}}}, {"name": "StatefulPartitionedCall/model_1/efficientnetb0/block4b_se_reshape/strided_slice", "op": "StridedSlice", "input": ["StatefulPartitionedCall/model_1/efficientnetb0/block4b_se_reshape/Shape", "StatefulPartitionedCall/model_1/efficientnetb0/block4b_se_reshape/strided_slice/stack", "StatefulPartitionedCall/model_1/efficientnetb0/block4b_se_reshape/strided_slice/stack_1", "StatefulPartitionedCall/model_1/efficientnetb0/block4b_se_reshape/strided_slice/stack_2"], "attr": {"new_axis_mask": {"i": "0"}, "Index": {"type": "DT_INT32"}, "begin_mask": {"i": "0"}, "end_mask": {"i": "0"}, "T": {"type": "DT_INT32"}, "ellipsis_mask": {"i": "0"}, "shrink_axis_mask": {"i": "1"}}}, {"name": "StatefulPartitionedCall/model_1/efficientnetb0/block4b_se_reshape/Reshape/shape", "op": "Pack", "input": ["StatefulPartitionedCall/model_1/efficientnetb0/block4b_se_reshape/strided_slice", "StatefulPartitionedCall/model_1/efficientnetb0/block4b_se_reshape/Reshape/shape/1", "StatefulPartitionedCall/model_1/efficientnetb0/block4b_se_reshape/Reshape/shape/2", "StatefulPartitionedCall/model_1/efficientnetb0/block4b_se_reshape/Reshape/shape/3"], "attr": {"T": {"type": "DT_INT32"}, "axis": {"i": "0"}, "N": {"i": "4"}}}, {"name": "StatefulPartitionedCall/model_1/efficientnetb0/block4b_se_reshape/Reshape", "op": "Reshape", "input": ["StatefulPartitionedCall/model_1/efficientnetb0/block4b_se_squeeze/Mean", "StatefulPartitionedCall/model_1/efficientnetb0/block4b_se_reshape/Reshape/shape"], "attr": {"T": {"type": "DT_FLOAT"}, "Tshape": {"type": "DT_INT32"}}}, {"name": "StatefulPartitionedCall/model_1/efficientnetb0/block4b_se_reduce/BiasAdd", "op": "_FusedConv2D", "input": ["StatefulPartitionedCall/model_1/efficientnetb0/block4b_se_reshape/Reshape", "StatefulPartitionedCall/model_1/efficientnetb0/block4b_se_reduce/Conv2D/ReadVariableOp", "StatefulPartitionedCall/model_1/efficientnetb0/block4b_se_reduce/BiasAdd/ReadVariableOp"], "device": "/device:CPU:0", "attr": {"epsilon": {"f": 0.0}, "num_args": {"i": "1"}, "padding": {"s": "U0FNRQ=="}, "T": {"type": "DT_FLOAT"}, "fused_ops": {"list": {"s": ["Qmlhc0FkZA=="]}}, "dilations": {"list": {"i": ["1", "1", "1", "1"]}}, "use_cudnn_on_gpu": {"b": true}, "explicit_paddings": {"list": {}}, "strides": {"list": {"i": ["1", "1", "1", "1"]}}, "data_format": {"s": "TkhXQw=="}}}, {"name": "StatefulPartitionedCall/model_1/efficientnetb0/block4b_se_reduce/Sigmoid", "op": "Sigmoid", "input": ["StatefulPartitionedCall/model_1/efficientnetb0/block4b_se_reduce/BiasAdd"], "attr": {"T": {"type": "DT_FLOAT"}}}, {"name": "StatefulPartitionedCall/model_1/efficientnetb0/block4b_se_reduce/mul", "op": "Mul", "input": ["StatefulPartitionedCall/model_1/efficientnetb0/block4b_se_reduce/BiasAdd", "StatefulPartitionedCall/model_1/efficientnetb0/block4b_se_reduce/Sigmoid"], "attr": {"T": {"type": "DT_FLOAT"}}}, {"name": "StatefulPartitionedCall/model_1/efficientnetb0/block4b_se_expand/BiasAdd", "op": "_FusedConv2D", "input": ["StatefulPartitionedCall/model_1/efficientnetb0/block4b_se_reduce/mul", "StatefulPartitionedCall/model_1/efficientnetb0/block4b_se_expand/Conv2D/ReadVariableOp", "StatefulPartitionedCall/model_1/efficientnetb0/block4b_se_expand/BiasAdd/ReadVariableOp"], "device": "/device:CPU:0", "attr": {"fused_ops": {"list": {"s": ["Qmlhc0FkZA=="]}}, "num_args": {"i": "1"}, "use_cudnn_on_gpu": {"b": true}, "padding": {"s": "U0FNRQ=="}, "strides": {"list": {"i": ["1", "1", "1", "1"]}}, "explicit_paddings": {"list": {}}, "data_format": {"s": "TkhXQw=="}, "epsilon": {"f": 0.0}, "T": {"type": "DT_FLOAT"}, "dilations": {"list": {"i": ["1", "1", "1", "1"]}}}}, {"name": "StatefulPartitionedCall/model_1/efficientnetb0/block4b_se_expand/Sigmoid", "op": "Sigmoid", "input": ["StatefulPartitionedCall/model_1/efficientnetb0/block4b_se_expand/BiasAdd"], "attr": {"T": {"type": "DT_FLOAT"}}}, {"name": "StatefulPartitionedCall/model_1/efficientnetb0/block4b_se_excite/mul", "op": "Mul", "input": ["StatefulPartitionedCall/model_1/efficientnetb0/block4b_activation/mul", "StatefulPartitionedCall/model_1/efficientnetb0/block4b_se_expand/Sigmoid"], "attr": {"T": {"type": "DT_FLOAT"}}}, {"name": "StatefulPartitionedCall/model_1/efficientnetb0/block4b_project_bn/FusedBatchNormV3", "op": "_FusedConv2D", "input": ["StatefulPartitionedCall/model_1/efficientnetb0/block4b_se_excite/mul", "StatefulPartitionedCall/model_1/efficientnetb0/block4b_project_conv/Conv2D_weights", "StatefulPartitionedCall/model_1/efficientnetb0/block4b_project_conv/Conv2D_bn_offset"], "device": "/device:CPU:0", "attr": {"data_format": {"s": "TkhXQw=="}, "num_args": {"i": "1"}, "padding": {"s": "U0FNRQ=="}, "explicit_paddings": {"list": {}}, "dilations": {"list": {"i": ["1", "1", "1", "1"]}}, "strides": {"list": {"i": ["1", "1", "1", "1"]}}, "T": {"type": "DT_FLOAT"}, "fused_ops": {"list": {"s": ["Qmlhc0FkZA=="]}}, "epsilon": {"f": 0.0}, "use_cudnn_on_gpu": {"b": true}}}, {"name": "StatefulPartitionedCall/model_1/efficientnetb0/block4b_add/add", "op": "AddV2", "input": ["StatefulPartitionedCall/model_1/efficientnetb0/block4b_project_bn/FusedBatchNormV3", "StatefulPartitionedCall/model_1/efficientnetb0/block4a_project_bn/FusedBatchNormV3"], "attr": {"T": {"type": "DT_FLOAT"}}}, {"name": "StatefulPartitionedCall/model_1/efficientnetb0/block4c_expand_bn/FusedBatchNormV3", "op": "_FusedConv2D", "input": ["StatefulPartitionedCall/model_1/efficientnetb0/block4b_add/add", "StatefulPartitionedCall/model_1/efficientnetb0/block4c_expand_conv/Conv2D_weights", "StatefulPartitionedCall/model_1/efficientnetb0/block4c_expand_conv/Conv2D_bn_offset"], "device": "/device:CPU:0", "attr": {"num_args": {"i": "1"}, "dilations": {"list": {"i": ["1", "1", "1", "1"]}}, "strides": {"list": {"i": ["1", "1", "1", "1"]}}, "padding": {"s": "U0FNRQ=="}, "use_cudnn_on_gpu": {"b": true}, "data_format": {"s": "TkhXQw=="}, "epsilon": {"f": 0.0}, "T": {"type": "DT_FLOAT"}, "explicit_paddings": {"list": {}}, "fused_ops": {"list": {"s": ["Qmlhc0FkZA=="]}}}}, {"name": "StatefulPartitionedCall/model_1/efficientnetb0/block4c_expand_activation/Sigmoid", "op": "Sigmoid", "input": ["StatefulPartitionedCall/model_1/efficientnetb0/block4c_expand_bn/FusedBatchNormV3"], "attr": {"T": {"type": "DT_FLOAT"}}}, {"name": "StatefulPartitionedCall/model_1/efficientnetb0/block4c_expand_activation/mul", "op": "Mul", "input": ["StatefulPartitionedCall/model_1/efficientnetb0/block4c_expand_bn/FusedBatchNormV3", "StatefulPartitionedCall/model_1/efficientnetb0/block4c_expand_activation/Sigmoid"], "attr": {"T": {"type": "DT_FLOAT"}}}, {"name": "StatefulPartitionedCall/model_1/efficientnetb0/block4c_dwconv/depthwise", "op": "FusedDepthwiseConv2dNative", "input": ["StatefulPartitionedCall/model_1/efficientnetb0/block4c_expand_activation/mul", "StatefulPartitionedCall/model_1/efficientnetb0/block4c_dwconv/depthwise_weights", "StatefulPartitionedCall/model_1/efficientnetb0/block4c_dwconv/depthwise_bn_offset"], "attr": {"T": {"type": "DT_FLOAT"}, "num_args": {"i": "1"}, "data_format": {"s": "TkhXQw=="}, "explicit_paddings": {"list": {}}, "fused_ops": {"list": {"s": ["Qmlhc0FkZA=="]}}, "dilations": {"list": {"i": ["1", "1", "1", "1"]}}, "strides": {"list": {"i": ["1", "1", "1", "1"]}}, "padding": {"s": "U0FNRQ=="}}}, {"name": "StatefulPartitionedCall/model_1/efficientnetb0/block4c_activation/Sigmoid", "op": "Sigmoid", "input": ["StatefulPartitionedCall/model_1/efficientnetb0/block4c_dwconv/depthwise"], "attr": {"T": {"type": "DT_FLOAT"}}}, {"name": "StatefulPartitionedCall/model_1/efficientnetb0/block4c_activation/mul", "op": "Mul", "input": ["StatefulPartitionedCall/model_1/efficientnetb0/block4c_dwconv/depthwise", "StatefulPartitionedCall/model_1/efficientnetb0/block4c_activation/Sigmoid"], "attr": {"T": {"type": "DT_FLOAT"}}}, {"name": "StatefulPartitionedCall/model_1/efficientnetb0/block4c_se_squeeze/Mean", "op": "Mean", "input": ["StatefulPartitionedCall/model_1/efficientnetb0/block4c_activation/mul", "StatefulPartitionedCall/model_1/efficientnetb0/block4c_se_squeeze/Mean/reduction_indices"], "attr": {"Tidx": {"type": "DT_INT32"}, "T": {"type": "DT_FLOAT"}, "keep_dims": {"b": false}}}, {"name": "StatefulPartitionedCall/model_1/efficientnetb0/block4c_se_reshape/Shape", "op": "Shape", "input": ["StatefulPartitionedCall/model_1/efficientnetb0/block4c_se_squeeze/Mean"], "attr": {"T": {"type": "DT_FLOAT"}, "out_type": {"type": "DT_INT32"}}}, {"name": "StatefulPartitionedCall/model_1/efficientnetb0/block4c_se_reshape/strided_slice", "op": "StridedSlice", "input": ["StatefulPartitionedCall/model_1/efficientnetb0/block4c_se_reshape/Shape", "StatefulPartitionedCall/model_1/efficientnetb0/block4c_se_reshape/strided_slice/stack", "StatefulPartitionedCall/model_1/efficientnetb0/block4c_se_reshape/strided_slice/stack_1", "StatefulPartitionedCall/model_1/efficientnetb0/block4c_se_reshape/strided_slice/stack_2"], "attr": {"new_axis_mask": {"i": "0"}, "begin_mask": {"i": "0"}, "Index": {"type": "DT_INT32"}, "end_mask": {"i": "0"}, "T": {"type": "DT_INT32"}, "shrink_axis_mask": {"i": "1"}, "ellipsis_mask": {"i": "0"}}}, {"name": "StatefulPartitionedCall/model_1/efficientnetb0/block4c_se_reshape/Reshape/shape", "op": "Pack", "input": ["StatefulPartitionedCall/model_1/efficientnetb0/block4c_se_reshape/strided_slice", "StatefulPartitionedCall/model_1/efficientnetb0/block4c_se_reshape/Reshape/shape/1", "StatefulPartitionedCall/model_1/efficientnetb0/block4c_se_reshape/Reshape/shape/2", "StatefulPartitionedCall/model_1/efficientnetb0/block4c_se_reshape/Reshape/shape/3"], "attr": {"T": {"type": "DT_INT32"}, "N": {"i": "4"}, "axis": {"i": "0"}}}, {"name": "StatefulPartitionedCall/model_1/efficientnetb0/block4c_se_reshape/Reshape", "op": "Reshape", "input": ["StatefulPartitionedCall/model_1/efficientnetb0/block4c_se_squeeze/Mean", "StatefulPartitionedCall/model_1/efficientnetb0/block4c_se_reshape/Reshape/shape"], "attr": {"Tshape": {"type": "DT_INT32"}, "T": {"type": "DT_FLOAT"}}}, {"name": "StatefulPartitionedCall/model_1/efficientnetb0/block4c_se_reduce/BiasAdd", "op": "_FusedConv2D", "input": ["StatefulPartitionedCall/model_1/efficientnetb0/block4c_se_reshape/Reshape", "StatefulPartitionedCall/model_1/efficientnetb0/block4c_se_reduce/Conv2D/ReadVariableOp", "StatefulPartitionedCall/model_1/efficientnetb0/block4c_se_reduce/BiasAdd/ReadVariableOp"], "device": "/device:CPU:0", "attr": {"num_args": {"i": "1"}, "fused_ops": {"list": {"s": ["Qmlhc0FkZA=="]}}, "data_format": {"s": "TkhXQw=="}, "explicit_paddings": {"list": {}}, "dilations": {"list": {"i": ["1", "1", "1", "1"]}}, "padding": {"s": "U0FNRQ=="}, "T": {"type": "DT_FLOAT"}, "use_cudnn_on_gpu": {"b": true}, "strides": {"list": {"i": ["1", "1", "1", "1"]}}, "epsilon": {"f": 0.0}}}, {"name": "StatefulPartitionedCall/model_1/efficientnetb0/block4c_se_reduce/Sigmoid", "op": "Sigmoid", "input": ["StatefulPartitionedCall/model_1/efficientnetb0/block4c_se_reduce/BiasAdd"], "attr": {"T": {"type": "DT_FLOAT"}}}, {"name": "StatefulPartitionedCall/model_1/efficientnetb0/block4c_se_reduce/mul", "op": "Mul", "input": ["StatefulPartitionedCall/model_1/efficientnetb0/block4c_se_reduce/BiasAdd", "StatefulPartitionedCall/model_1/efficientnetb0/block4c_se_reduce/Sigmoid"], "attr": {"T": {"type": "DT_FLOAT"}}}, {"name": "StatefulPartitionedCall/model_1/efficientnetb0/block4c_se_expand/BiasAdd", "op": "_FusedConv2D", "input": ["StatefulPartitionedCall/model_1/efficientnetb0/block4c_se_reduce/mul", "StatefulPartitionedCall/model_1/efficientnetb0/block4c_se_expand/Conv2D/ReadVariableOp", "StatefulPartitionedCall/model_1/efficientnetb0/block4c_se_expand/BiasAdd/ReadVariableOp"], "device": "/device:CPU:0", "attr": {"fused_ops": {"list": {"s": ["Qmlhc0FkZA=="]}}, "dilations": {"list": {"i": ["1", "1", "1", "1"]}}, "T": {"type": "DT_FLOAT"}, "explicit_paddings": {"list": {}}, "epsilon": {"f": 0.0}, "use_cudnn_on_gpu": {"b": true}, "data_format": {"s": "TkhXQw=="}, "padding": {"s": "U0FNRQ=="}, "num_args": {"i": "1"}, "strides": {"list": {"i": ["1", "1", "1", "1"]}}}}, {"name": "StatefulPartitionedCall/model_1/efficientnetb0/block4c_se_expand/Sigmoid", "op": "Sigmoid", "input": ["StatefulPartitionedCall/model_1/efficientnetb0/block4c_se_expand/BiasAdd"], "attr": {"T": {"type": "DT_FLOAT"}}}, {"name": "StatefulPartitionedCall/model_1/efficientnetb0/block4c_se_excite/mul", "op": "Mul", "input": ["StatefulPartitionedCall/model_1/efficientnetb0/block4c_activation/mul", "StatefulPartitionedCall/model_1/efficientnetb0/block4c_se_expand/Sigmoid"], "attr": {"T": {"type": "DT_FLOAT"}}}, {"name": "StatefulPartitionedCall/model_1/efficientnetb0/block4c_project_bn/FusedBatchNormV3", "op": "_FusedConv2D", "input": ["StatefulPartitionedCall/model_1/efficientnetb0/block4c_se_excite/mul", "StatefulPartitionedCall/model_1/efficientnetb0/block4c_project_conv/Conv2D_weights", "StatefulPartitionedCall/model_1/efficientnetb0/block4c_project_conv/Conv2D_bn_offset"], "device": "/device:CPU:0", "attr": {"num_args": {"i": "1"}, "fused_ops": {"list": {"s": ["Qmlhc0FkZA=="]}}, "data_format": {"s": "TkhXQw=="}, "T": {"type": "DT_FLOAT"}, "explicit_paddings": {"list": {}}, "padding": {"s": "U0FNRQ=="}, "dilations": {"list": {"i": ["1", "1", "1", "1"]}}, "strides": {"list": {"i": ["1", "1", "1", "1"]}}, "use_cudnn_on_gpu": {"b": true}, "epsilon": {"f": 0.0}}}, {"name": "StatefulPartitionedCall/model_1/efficientnetb0/block4c_add/add", "op": "AddV2", "input": ["StatefulPartitionedCall/model_1/efficientnetb0/block4c_project_bn/FusedBatchNormV3", "StatefulPartitionedCall/model_1/efficientnetb0/block4b_add/add"], "attr": {"T": {"type": "DT_FLOAT"}}}, {"name": "StatefulPartitionedCall/model_1/efficientnetb0/block5a_expand_bn/FusedBatchNormV3", "op": "_FusedConv2D", "input": ["StatefulPartitionedCall/model_1/efficientnetb0/block4c_add/add", "StatefulPartitionedCall/model_1/efficientnetb0/block5a_expand_conv/Conv2D_weights", "StatefulPartitionedCall/model_1/efficientnetb0/block5a_expand_conv/Conv2D_bn_offset"], "device": "/device:CPU:0", "attr": {"epsilon": {"f": 0.0}, "dilations": {"list": {"i": ["1", "1", "1", "1"]}}, "data_format": {"s": "TkhXQw=="}, "fused_ops": {"list": {"s": ["Qmlhc0FkZA=="]}}, "use_cudnn_on_gpu": {"b": true}, "padding": {"s": "U0FNRQ=="}, "strides": {"list": {"i": ["1", "1", "1", "1"]}}, "num_args": {"i": "1"}, "T": {"type": "DT_FLOAT"}, "explicit_paddings": {"list": {}}}}, {"name": "StatefulPartitionedCall/model_1/efficientnetb0/block5a_expand_activation/Sigmoid", "op": "Sigmoid", "input": ["StatefulPartitionedCall/model_1/efficientnetb0/block5a_expand_bn/FusedBatchNormV3"], "attr": {"T": {"type": "DT_FLOAT"}}}, {"name": "StatefulPartitionedCall/model_1/efficientnetb0/block5a_expand_activation/mul", "op": "Mul", "input": ["StatefulPartitionedCall/model_1/efficientnetb0/block5a_expand_bn/FusedBatchNormV3", "StatefulPartitionedCall/model_1/efficientnetb0/block5a_expand_activation/Sigmoid"], "attr": {"T": {"type": "DT_FLOAT"}}}, {"name": "StatefulPartitionedCall/model_1/efficientnetb0/block5a_dwconv/depthwise", "op": "FusedDepthwiseConv2dNative", "input": ["StatefulPartitionedCall/model_1/efficientnetb0/block5a_expand_activation/mul", "StatefulPartitionedCall/model_1/efficientnetb0/block5a_dwconv/depthwise_weights", "StatefulPartitionedCall/model_1/efficientnetb0/block5a_dwconv/depthwise_bn_offset"], "attr": {"explicit_paddings": {"list": {}}, "data_format": {"s": "TkhXQw=="}, "num_args": {"i": "1"}, "strides": {"list": {"i": ["1", "1", "1", "1"]}}, "padding": {"s": "U0FNRQ=="}, "T": {"type": "DT_FLOAT"}, "fused_ops": {"list": {"s": ["Qmlhc0FkZA=="]}}, "dilations": {"list": {"i": ["1", "1", "1", "1"]}}}}, {"name": "StatefulPartitionedCall/model_1/efficientnetb0/block5a_activation/Sigmoid", "op": "Sigmoid", "input": ["StatefulPartitionedCall/model_1/efficientnetb0/block5a_dwconv/depthwise"], "attr": {"T": {"type": "DT_FLOAT"}}}, {"name": "StatefulPartitionedCall/model_1/efficientnetb0/block5a_activation/mul", "op": "Mul", "input": ["StatefulPartitionedCall/model_1/efficientnetb0/block5a_dwconv/depthwise", "StatefulPartitionedCall/model_1/efficientnetb0/block5a_activation/Sigmoid"], "attr": {"T": {"type": "DT_FLOAT"}}}, {"name": "StatefulPartitionedCall/model_1/efficientnetb0/block5a_se_squeeze/Mean", "op": "Mean", "input": ["StatefulPartitionedCall/model_1/efficientnetb0/block5a_activation/mul", "StatefulPartitionedCall/model_1/efficientnetb0/block5a_se_squeeze/Mean/reduction_indices"], "attr": {"T": {"type": "DT_FLOAT"}, "keep_dims": {"b": false}, "Tidx": {"type": "DT_INT32"}}}, {"name": "StatefulPartitionedCall/model_1/efficientnetb0/block5a_se_reshape/Shape", "op": "Shape", "input": ["StatefulPartitionedCall/model_1/efficientnetb0/block5a_se_squeeze/Mean"], "attr": {"T": {"type": "DT_FLOAT"}, "out_type": {"type": "DT_INT32"}}}, {"name": "StatefulPartitionedCall/model_1/efficientnetb0/block5a_se_reshape/strided_slice", "op": "StridedSlice", "input": ["StatefulPartitionedCall/model_1/efficientnetb0/block5a_se_reshape/Shape", "StatefulPartitionedCall/model_1/efficientnetb0/block5a_se_reshape/strided_slice/stack", "StatefulPartitionedCall/model_1/efficientnetb0/block5a_se_reshape/strided_slice/stack_1", "StatefulPartitionedCall/model_1/efficientnetb0/block5a_se_reshape/strided_slice/stack_2"], "attr": {"new_axis_mask": {"i": "0"}, "begin_mask": {"i": "0"}, "T": {"type": "DT_INT32"}, "ellipsis_mask": {"i": "0"}, "end_mask": {"i": "0"}, "Index": {"type": "DT_INT32"}, "shrink_axis_mask": {"i": "1"}}}, {"name": "StatefulPartitionedCall/model_1/efficientnetb0/block5a_se_reshape/Reshape/shape", "op": "Pack", "input": ["StatefulPartitionedCall/model_1/efficientnetb0/block5a_se_reshape/strided_slice", "StatefulPartitionedCall/model_1/efficientnetb0/block5a_se_reshape/Reshape/shape/1", "StatefulPartitionedCall/model_1/efficientnetb0/block5a_se_reshape/Reshape/shape/2", "StatefulPartitionedCall/model_1/efficientnetb0/block5a_se_reshape/Reshape/shape/3"], "attr": {"N": {"i": "4"}, "T": {"type": "DT_INT32"}, "axis": {"i": "0"}}}, {"name": "StatefulPartitionedCall/model_1/efficientnetb0/block5a_se_reshape/Reshape", "op": "Reshape", "input": ["StatefulPartitionedCall/model_1/efficientnetb0/block5a_se_squeeze/Mean", "StatefulPartitionedCall/model_1/efficientnetb0/block5a_se_reshape/Reshape/shape"], "attr": {"Tshape": {"type": "DT_INT32"}, "T": {"type": "DT_FLOAT"}}}, {"name": "StatefulPartitionedCall/model_1/efficientnetb0/block5a_se_reduce/BiasAdd", "op": "_FusedConv2D", "input": ["StatefulPartitionedCall/model_1/efficientnetb0/block5a_se_reshape/Reshape", "StatefulPartitionedCall/model_1/efficientnetb0/block5a_se_reduce/Conv2D/ReadVariableOp", "StatefulPartitionedCall/model_1/efficientnetb0/block5a_se_reduce/BiasAdd/ReadVariableOp"], "device": "/device:CPU:0", "attr": {"dilations": {"list": {"i": ["1", "1", "1", "1"]}}, "use_cudnn_on_gpu": {"b": true}, "padding": {"s": "U0FNRQ=="}, "fused_ops": {"list": {"s": ["Qmlhc0FkZA=="]}}, "num_args": {"i": "1"}, "strides": {"list": {"i": ["1", "1", "1", "1"]}}, "epsilon": {"f": 0.0}, "T": {"type": "DT_FLOAT"}, "data_format": {"s": "TkhXQw=="}, "explicit_paddings": {"list": {}}}}, {"name": "StatefulPartitionedCall/model_1/efficientnetb0/block5a_se_reduce/Sigmoid", "op": "Sigmoid", "input": ["StatefulPartitionedCall/model_1/efficientnetb0/block5a_se_reduce/BiasAdd"], "attr": {"T": {"type": "DT_FLOAT"}}}, {"name": "StatefulPartitionedCall/model_1/efficientnetb0/block5a_se_reduce/mul", "op": "Mul", "input": ["StatefulPartitionedCall/model_1/efficientnetb0/block5a_se_reduce/BiasAdd", "StatefulPartitionedCall/model_1/efficientnetb0/block5a_se_reduce/Sigmoid"], "attr": {"T": {"type": "DT_FLOAT"}}}, {"name": "StatefulPartitionedCall/model_1/efficientnetb0/block5a_se_expand/BiasAdd", "op": "_FusedConv2D", "input": ["StatefulPartitionedCall/model_1/efficientnetb0/block5a_se_reduce/mul", "StatefulPartitionedCall/model_1/efficientnetb0/block5a_se_expand/Conv2D/ReadVariableOp", "StatefulPartitionedCall/model_1/efficientnetb0/block5a_se_expand/BiasAdd/ReadVariableOp"], "device": "/device:CPU:0", "attr": {"explicit_paddings": {"list": {}}, "data_format": {"s": "TkhXQw=="}, "dilations": {"list": {"i": ["1", "1", "1", "1"]}}, "epsilon": {"f": 0.0}, "padding": {"s": "U0FNRQ=="}, "use_cudnn_on_gpu": {"b": true}, "T": {"type": "DT_FLOAT"}, "strides": {"list": {"i": ["1", "1", "1", "1"]}}, "fused_ops": {"list": {"s": ["Qmlhc0FkZA=="]}}, "num_args": {"i": "1"}}}, {"name": "StatefulPartitionedCall/model_1/efficientnetb0/block5a_se_expand/Sigmoid", "op": "Sigmoid", "input": ["StatefulPartitionedCall/model_1/efficientnetb0/block5a_se_expand/BiasAdd"], "attr": {"T": {"type": "DT_FLOAT"}}}, {"name": "StatefulPartitionedCall/model_1/efficientnetb0/block5a_se_excite/mul", "op": "Mul", "input": ["StatefulPartitionedCall/model_1/efficientnetb0/block5a_activation/mul", "StatefulPartitionedCall/model_1/efficientnetb0/block5a_se_expand/Sigmoid"], "attr": {"T": {"type": "DT_FLOAT"}}}, {"name": "StatefulPartitionedCall/model_1/efficientnetb0/block5a_project_bn/FusedBatchNormV3", "op": "_FusedConv2D", "input": ["StatefulPartitionedCall/model_1/efficientnetb0/block5a_se_excite/mul", "StatefulPartitionedCall/model_1/efficientnetb0/block5a_project_conv/Conv2D_weights", "StatefulPartitionedCall/model_1/efficientnetb0/block5a_project_conv/Conv2D_bn_offset"], "device": "/device:CPU:0", "attr": {"strides": {"list": {"i": ["1", "1", "1", "1"]}}, "data_format": {"s": "TkhXQw=="}, "epsilon": {"f": 0.0}, "dilations": {"list": {"i": ["1", "1", "1", "1"]}}, "num_args": {"i": "1"}, "T": {"type": "DT_FLOAT"}, "fused_ops": {"list": {"s": ["Qmlhc0FkZA=="]}}, "explicit_paddings": {"list": {}}, "padding": {"s": "U0FNRQ=="}, "use_cudnn_on_gpu": {"b": true}}}, {"name": "StatefulPartitionedCall/model_1/efficientnetb0/block5b_expand_bn/FusedBatchNormV3", "op": "_FusedConv2D", "input": ["StatefulPartitionedCall/model_1/efficientnetb0/block5a_project_bn/FusedBatchNormV3", "StatefulPartitionedCall/model_1/efficientnetb0/block5b_expand_conv/Conv2D_weights", "StatefulPartitionedCall/model_1/efficientnetb0/block5b_expand_conv/Conv2D_bn_offset"], "device": "/device:CPU:0", "attr": {"use_cudnn_on_gpu": {"b": true}, "padding": {"s": "U0FNRQ=="}, "data_format": {"s": "TkhXQw=="}, "strides": {"list": {"i": ["1", "1", "1", "1"]}}, "num_args": {"i": "1"}, "fused_ops": {"list": {"s": ["Qmlhc0FkZA=="]}}, "explicit_paddings": {"list": {}}, "dilations": {"list": {"i": ["1", "1", "1", "1"]}}, "T": {"type": "DT_FLOAT"}, "epsilon": {"f": 0.0}}}, {"name": "StatefulPartitionedCall/model_1/efficientnetb0/block5b_expand_activation/Sigmoid", "op": "Sigmoid", "input": ["StatefulPartitionedCall/model_1/efficientnetb0/block5b_expand_bn/FusedBatchNormV3"], "attr": {"T": {"type": "DT_FLOAT"}}}, {"name": "StatefulPartitionedCall/model_1/efficientnetb0/block5b_expand_activation/mul", "op": "Mul", "input": ["StatefulPartitionedCall/model_1/efficientnetb0/block5b_expand_bn/FusedBatchNormV3", "StatefulPartitionedCall/model_1/efficientnetb0/block5b_expand_activation/Sigmoid"], "attr": {"T": {"type": "DT_FLOAT"}}}, {"name": "StatefulPartitionedCall/model_1/efficientnetb0/block5b_dwconv/depthwise", "op": "FusedDepthwiseConv2dNative", "input": ["StatefulPartitionedCall/model_1/efficientnetb0/block5b_expand_activation/mul", "StatefulPartitionedCall/model_1/efficientnetb0/block5b_dwconv/depthwise_weights", "StatefulPartitionedCall/model_1/efficientnetb0/block5b_dwconv/depthwise_bn_offset"], "attr": {"fused_ops": {"list": {"s": ["Qmlhc0FkZA=="]}}, "T": {"type": "DT_FLOAT"}, "data_format": {"s": "TkhXQw=="}, "dilations": {"list": {"i": ["1", "1", "1", "1"]}}, "explicit_paddings": {"list": {}}, "strides": {"list": {"i": ["1", "1", "1", "1"]}}, "num_args": {"i": "1"}, "padding": {"s": "U0FNRQ=="}}}, {"name": "St…
rtitionedCall/model_1/efficientnetb0/block6d_add/add", "op": "AddV2", "input": ["StatefulPartitionedCall/model_1/efficientnetb0/block6d_project_bn/FusedBatchNormV3", "StatefulPartitionedCall/model_1/efficientnetb0/block6c_add/add"], "attr": {"T": {"type": "DT_FLOAT"}}}, {"name": "StatefulPartitionedCall/model_1/efficientnetb0/block7a_expand_bn/FusedBatchNormV3", "op": "_FusedConv2D", "input": ["StatefulPartitionedCall/model_1/efficientnetb0/block6d_add/add", "StatefulPartitionedCall/model_1/efficientnetb0/block7a_expand_conv/Conv2D_weights", "StatefulPartitionedCall/model_1/efficientnetb0/block7a_expand_conv/Conv2D_bn_offset"], "device": "/device:CPU:0", "attr": {"explicit_paddings": {"list": {}}, "dilations": {"list": {"i": ["1", "1", "1", "1"]}}, "strides": {"list": {"i": ["1", "1", "1", "1"]}}, "data_format": {"s": "TkhXQw=="}, "T": {"type": "DT_FLOAT"}, "fused_ops": {"list": {"s": ["Qmlhc0FkZA=="]}}, "use_cudnn_on_gpu": {"b": true}, "epsilon": {"f": 0.0}, "padding": {"s": "U0FNRQ=="}, "num_args": {"i": "1"}}}, {"name": "StatefulPartitionedCall/model_1/efficientnetb0/block7a_expand_activation/Sigmoid", "op": "Sigmoid", "input": ["StatefulPartitionedCall/model_1/efficientnetb0/block7a_expand_bn/FusedBatchNormV3"], "attr": {"T": {"type": "DT_FLOAT"}}}, {"name": "StatefulPartitionedCall/model_1/efficientnetb0/block7a_expand_activation/mul", "op": "Mul", "input": ["StatefulPartitionedCall/model_1/efficientnetb0/block7a_expand_bn/FusedBatchNormV3", "StatefulPartitionedCall/model_1/efficientnetb0/block7a_expand_activation/Sigmoid"], "attr": {"T": {"type": "DT_FLOAT"}}}, {"name": "StatefulPartitionedCall/model_1/efficientnetb0/block7a_dwconv/depthwise", "op": "FusedDepthwiseConv2dNative", "input": ["StatefulPartitionedCall/model_1/efficientnetb0/block7a_expand_activation/mul", "StatefulPartitionedCall/model_1/efficientnetb0/block7a_dwconv/depthwise_weights", "StatefulPartitionedCall/model_1/efficientnetb0/block7a_dwconv/depthwise_bn_offset"], "attr": {"T": {"type": "DT_FLOAT"}, "padding": {"s": "U0FNRQ=="}, "fused_ops": {"list": {"s": ["Qmlhc0FkZA=="]}}, "dilations": {"list": {"i": ["1", "1", "1", "1"]}}, "data_format": {"s": "TkhXQw=="}, "explicit_paddings": {"list": {}}, "num_args": {"i": "1"}, "strides": {"list": {"i": ["1", "1", "1", "1"]}}}}, {"name": "StatefulPartitionedCall/model_1/efficientnetb0/block7a_activation/Sigmoid", "op": "Sigmoid", "input": ["StatefulPartitionedCall/model_1/efficientnetb0/block7a_dwconv/depthwise"], "attr": {"T": {"type": "DT_FLOAT"}}}, {"name": "StatefulPartitionedCall/model_1/efficientnetb0/block7a_activation/mul", "op": "Mul", "input": ["StatefulPartitionedCall/model_1/efficientnetb0/block7a_dwconv/depthwise", "StatefulPartitionedCall/model_1/efficientnetb0/block7a_activation/Sigmoid"], "attr": {"T": {"type": "DT_FLOAT"}}}, {"name": "StatefulPartitionedCall/model_1/efficientnetb0/block7a_se_squeeze/Mean", "op": "Mean", "input": ["StatefulPartitionedCall/model_1/efficientnetb0/block7a_activation/mul", "StatefulPartitionedCall/model_1/efficientnetb0/block7a_se_squeeze/Mean/reduction_indices"], "attr": {"T": {"type": "DT_FLOAT"}, "keep_dims": {"b": false}, "Tidx": {"type": "DT_INT32"}}}, {"name": "StatefulPartitionedCall/model_1/efficientnetb0/block7a_se_reshape/Shape", "op": "Shape", "input": ["StatefulPartitionedCall/model_1/efficientnetb0/block7a_se_squeeze/Mean"], "attr": {"out_type": {"type": "DT_INT32"}, "T": {"type": "DT_FLOAT"}}}, {"name": "StatefulPartitionedCall/model_1/efficientnetb0/block7a_se_reshape/strided_slice", "op": "StridedSlice", "input": ["StatefulPartitionedCall/model_1/efficientnetb0/block7a_se_reshape/Shape", "StatefulPartitionedCall/model_1/efficientnetb0/block7a_se_reshape/strided_slice/stack", "StatefulPartitionedCall/model_1/efficientnetb0/block7a_se_reshape/strided_slice/stack_1", "StatefulPartitionedCall/model_1/efficientnetb0/block7a_se_reshape/strided_slice/stack_2"], "attr": {"begin_mask": {"i": "0"}, "ellipsis_mask": {"i": "0"}, "new_axis_mask": {"i": "0"}, "T": {"type": "DT_INT32"}, "Index": {"type": "DT_INT32"}, "shrink_axis_mask": {"i": "1"}, "end_mask": {"i": "0"}}}, {"name": "StatefulPartitionedCall/model_1/efficientnetb0/block7a_se_reshape/Reshape/shape", "op": "Pack", "input": ["StatefulPartitionedCall/model_1/efficientnetb0/block7a_se_reshape/strided_slice", "StatefulPartitionedCall/model_1/efficientnetb0/block7a_se_reshape/Reshape/shape/1", "StatefulPartitionedCall/model_1/efficientnetb0/block7a_se_reshape/Reshape/shape/2", "StatefulPartitionedCall/model_1/efficientnetb0/block7a_se_reshape/Reshape/shape/3"], "attr": {"N": {"i": "4"}, "axis": {"i": "0"}, "T": {"type": "DT_INT32"}}}, {"name": "StatefulPartitionedCall/model_1/efficientnetb0/block7a_se_reshape/Reshape", "op": "Reshape", "input": ["StatefulPartitionedCall/model_1/efficientnetb0/block7a_se_squeeze/Mean", "StatefulPartitionedCall/model_1/efficientnetb0/block7a_se_reshape/Reshape/shape"], "attr": {"Tshape": {"type": "DT_INT32"}, "T": {"type": "DT_FLOAT"}}}, {"name": "StatefulPartitionedCall/model_1/efficientnetb0/block7a_se_reduce/BiasAdd", "op": "_FusedConv2D", "input": ["StatefulPartitionedCall/model_1/efficientnetb0/block7a_se_reshape/Reshape", "StatefulPartitionedCall/model_1/efficientnetb0/block7a_se_reduce/Conv2D/ReadVariableOp", "StatefulPartitionedCall/model_1/efficientnetb0/block7a_se_reduce/BiasAdd/ReadVariableOp"], "device": "/device:CPU:0", "attr": {"explicit_paddings": {"list": {}}, "data_format": {"s": "TkhXQw=="}, "num_args": {"i": "1"}, "strides": {"list": {"i": ["1", "1", "1", "1"]}}, "fused_ops": {"list": {"s": ["Qmlhc0FkZA=="]}}, "padding": {"s": "U0FNRQ=="}, "use_cudnn_on_gpu": {"b": true}, "T": {"type": "DT_FLOAT"}, "epsilon": {"f": 0.0}, "dilations": {"list": {"i": ["1", "1", "1", "1"]}}}}, {"name": "StatefulPartitionedCall/model_1/efficientnetb0/block7a_se_reduce/Sigmoid", "op": "Sigmoid", "input": ["StatefulPartitionedCall/model_1/efficientnetb0/block7a_se_reduce/BiasAdd"], "attr": {"T": {"type": "DT_FLOAT"}}}, {"name": "StatefulPartitionedCall/model_1/efficientnetb0/block7a_se_reduce/mul", "op": "Mul", "input": ["StatefulPartitionedCall/model_1/efficientnetb0/block7a_se_reduce/BiasAdd", "StatefulPartitionedCall/model_1/efficientnetb0/block7a_se_reduce/Sigmoid"], "attr": {"T": {"type": "DT_FLOAT"}}}, {"name": "StatefulPartitionedCall/model_1/efficientnetb0/block7a_se_expand/BiasAdd", "op": "_FusedConv2D", "input": ["StatefulPartitionedCall/model_1/efficientnetb0/block7a_se_reduce/mul", "StatefulPartitionedCall/model_1/efficientnetb0/block7a_se_expand/Conv2D/ReadVariableOp", "StatefulPartitionedCall/model_1/efficientnetb0/block7a_se_expand/BiasAdd/ReadVariableOp"], "device": "/device:CPU:0", "attr": {"num_args": {"i": "1"}, "strides": {"list": {"i": ["1", "1", "1", "1"]}}, "data_format": {"s": "TkhXQw=="}, "T": {"type": "DT_FLOAT"}, "use_cudnn_on_gpu": {"b": true}, "fused_ops": {"list": {"s": ["Qmlhc0FkZA=="]}}, "padding": {"s": "U0FNRQ=="}, "epsilon": {"f": 0.0}, "explicit_paddings": {"list": {}}, "dilations": {"list": {"i": ["1", "1", "1", "1"]}}}}, {"name": "StatefulPartitionedCall/model_1/efficientnetb0/block7a_se_expand/Sigmoid", "op": "Sigmoid", "input": ["StatefulPartitionedCall/model_1/efficientnetb0/block7a_se_expand/BiasAdd"], "attr": {"T": {"type": "DT_FLOAT"}}}, {"name": "StatefulPartitionedCall/model_1/efficientnetb0/block7a_se_excite/mul", "op": "Mul", "input": ["StatefulPartitionedCall/model_1/efficientnetb0/block7a_activation/mul", "StatefulPartitionedCall/model_1/efficientnetb0/block7a_se_expand/Sigmoid"], "attr": {"T": {"type": "DT_FLOAT"}}}, {"name": "StatefulPartitionedCall/model_1/efficientnetb0/block7a_project_bn/FusedBatchNormV3", "op": "_FusedConv2D", "input": ["StatefulPartitionedCall/model_1/efficientnetb0/block7a_se_excite/mul", "StatefulPartitionedCall/model_1/efficientnetb0/block7a_project_conv/Conv2D_weights", "StatefulPartitionedCall/model_1/efficientnetb0/block7a_project_conv/Conv2D_bn_offset"], "device": "/device:CPU:0", "attr": {"fused_ops": {"list": {"s": ["Qmlhc0FkZA=="]}}, "data_format": {"s": "TkhXQw=="}, "dilations": {"list": {"i": ["1", "1", "1", "1"]}}, "num_args": {"i": "1"}, "explicit_paddings": {"list": {}}, "T": {"type": "DT_FLOAT"}, "epsilon": {"f": 0.0}, "padding": {"s": "U0FNRQ=="}, "strides": {"list": {"i": ["1", "1", "1", "1"]}}, "use_cudnn_on_gpu": {"b": true}}}, {"name": "StatefulPartitionedCall/model_1/efficientnetb0/top_bn/FusedBatchNormV3", "op": "_FusedConv2D", "input": ["StatefulPartitionedCall/model_1/efficientnetb0/block7a_project_bn/FusedBatchNormV3", "StatefulPartitionedCall/model_1/efficientnetb0/top_conv/Conv2D_weights", "StatefulPartitionedCall/model_1/efficientnetb0/top_conv/Conv2D_bn_offset"], "device": "/device:CPU:0", "attr": {"fused_ops": {"list": {"s": ["Qmlhc0FkZA=="]}}, "epsilon": {"f": 0.0}, "use_cudnn_on_gpu": {"b": true}, "strides": {"list": {"i": ["1", "1", "1", "1"]}}, "dilations": {"list": {"i": ["1", "1", "1", "1"]}}, "explicit_paddings": {"list": {}}, "data_format": {"s": "TkhXQw=="}, "padding": {"s": "U0FNRQ=="}, "num_args": {"i": "1"}, "T": {"type": "DT_FLOAT"}}}, {"name": "StatefulPartitionedCall/model_1/efficientnetb0/top_activation/Sigmoid", "op": "Sigmoid", "input": ["StatefulPartitionedCall/model_1/efficientnetb0/top_bn/FusedBatchNormV3"], "attr": {"T": {"type": "DT_FLOAT"}}}, {"name": "StatefulPartitionedCall/model_1/efficientnetb0/top_activation/mul", "op": "Mul", "input": ["StatefulPartitionedCall/model_1/efficientnetb0/top_bn/FusedBatchNormV3", "StatefulPartitionedCall/model_1/efficientnetb0/top_activation/Sigmoid"], "attr": {"T": {"type": "DT_FLOAT"}}}, {"name": "StatefulPartitionedCall/model_1/global_average_pooling2d_1/Mean", "op": "Mean", "input": ["StatefulPartitionedCall/model_1/efficientnetb0/top_activation/mul", "StatefulPartitionedCall/model_1/global_average_pooling2d_1/Mean/reduction_indices"], "attr": {"keep_dims": {"b": false}, "Tidx": {"type": "DT_INT32"}, "T": {"type": "DT_FLOAT"}}}, {"name": "StatefulPartitionedCall/sequential/dense/Relu", "op": "_FusedMatMul", "input": ["StatefulPartitionedCall/model_1/global_average_pooling2d_1/Mean", "StatefulPartitionedCall/sequential/dense/MatMul/ReadVariableOp", "StatefulPartitionedCall/sequential/dense/BiasAdd/ReadVariableOp"], "device": "/device:CPU:0", "attr": {"transpose_a": {"b": false}, "transpose_b": {"b": false}, "T": {"type": "DT_FLOAT"}, "epsilon": {"f": 0.0}, "fused_ops": {"list": {"s": ["Qmlhc0FkZA==", "UmVsdQ=="]}}, "num_args": {"i": "1"}}}, {"name": "StatefulPartitionedCall/sequential/dense_1/BiasAdd", "op": "_FusedMatMul", "input": ["StatefulPartitionedCall/sequential/dense/Relu", "StatefulPartitionedCall/sequential/dense_1/MatMul/ReadVariableOp", "StatefulPartitionedCall/sequential/dense_1/BiasAdd/ReadVariableOp"], "device": "/device:CPU:0", "attr": {"transpose_b": {"b": false}, "epsilon": {"f": 0.0}, "fused_ops": {"list": {"s": ["Qmlhc0FkZA=="]}}, "T": {"type": "DT_FLOAT"}, "transpose_a": {"b": false}, "num_args": {"i": "1"}}}, {"name": "StatefulPartitionedCall/sequential/dense_1/Softmax", "op": "Softmax", "input": ["StatefulPartitionedCall/sequential/dense_1/BiasAdd"], "attr": {"T": {"type": "DT_FLOAT"}}}, {"name": "Identity", "op": "Identity", "input": ["StatefulPartitionedCall/sequential/dense_1/Softmax"], "attr": {"T": {"type": "DT_FLOAT"}}}], "library": {}, "versions": {"producer": 808}}, "weightsManifest": [{"paths": ["group1-shard1of4.bin", "group1-shard2of4.bin", "group1-shard3of4.bin", "group1-shard4of4.bin"], "weights": [{"name": "StatefulPartitionedCall/model_1/efficientnetb0/block6d_se_squeeze/Mean/reduction_indices", "shape": [2], "dtype": "int32"}, {"name": "StatefulPartitionedCall/model_1/efficientnetb0/block6d_se_reshape/strided_slice/stack", "shape": [1], "dtype": "int32"}, {"name": "StatefulPartitionedCall/model_1/efficientnetb0/block6d_se_reshape/strided_slice/stack_1", "shape": [1], "dtype": "int32"}, {"name": "StatefulPartitionedCall/model_1/efficientnetb0/block6d_se_reshape/strided_slice/stack_2", "shape": [1], "dtype": "int32"}, {"name": "StatefulPartitionedCall/model_1/efficientnetb0/block6d_se_reshape/Reshape/shape/1", "shape": [], "dtype": "int32"}, {"name": "StatefulPartitionedCall/model_1/efficientnetb0/block6d_se_reshape/Reshape/shape/2", "shape": [], "dtype": "int32"}, {"name": "StatefulPartitionedCall/model_1/efficientnetb0/block6d_se_reshape/Reshape/shape/3", "shape": [], "dtype": "int32"}, {"name": "StatefulPartitionedCall/model_1/efficientnetb0/block6d_se_reduce/Conv2D/ReadVariableOp", "shape": [1, 1, 1152, 48], "dtype": "float32"}, {"name": "StatefulPartitionedCall/model_1/efficientnetb0/block6d_se_reduce/BiasAdd/ReadVariableOp", "shape": [48], "dtype": "float32"}, {"name": "StatefulPartitionedCall/model_1/efficientnetb0/block6d_se_expand/Conv2D/ReadVariableOp", "shape": [1, 1, 48, 1152], "dtype": "float32"}, {"name": "StatefulPartitionedCall/model_1/efficientnetb0/block6d_se_expand/BiasAdd/ReadVariableOp", "shape": [1152], "dtype": "float32"}, {"name": "StatefulPartitionedCall/model_1/efficientnetb0/block6c_se_squeeze/Mean/reduction_indices", "shape": [2], "dtype": "int32"}, {"name": "StatefulPartitionedCall/model_1/efficientnetb0/block6c_se_reshape/strided_slice/stack", "shape": [1], "dtype": "int32"}, {"name": "StatefulPartitionedCall/model_1/efficientnetb0/block6c_se_reshape/strided_slice/stack_1", "shape": [1], "dtype": "int32"}, {"name": "StatefulPartitionedCall/model_1/efficientnetb0/block6c_se_reshape/strided_slice/stack_2", "shape": [1], "dtype": "int32"}, {"name": "StatefulPartitionedCall/model_1/efficientnetb0/block6c_se_reshape/Reshape/shape/1", "shape": [], "dtype": "int32"}, {"name": "StatefulPartitionedCall/model_1/efficientnetb0/block6c_se_reshape/Reshape/shape/2", "shape": [], "dtype": "int32"}, {"name": "StatefulPartitionedCall/model_1/efficientnetb0/block6c_se_reshape/Reshape/shape/3", "shape": [], "dtype": "int32"}, {"name": "StatefulPartitionedCall/model_1/efficientnetb0/block6c_se_reduce/Conv2D/ReadVariableOp", "shape": [1, 1, 1152, 48], "dtype": "float32"}, {"name": "StatefulPartitionedCall/model_1/efficientnetb0/block6c_se_reduce/BiasAdd/ReadVariableOp", "shape": [48], "dtype": "float32"}, {"name": "StatefulPartitionedCall/model_1/efficientnetb0/block6c_se_expand/Conv2D/ReadVariableOp", "shape": [1, 1, 48, 1152], "dtype": "float32"}, {"name": "StatefulPartitionedCall/model_1/efficientnetb0/block6c_se_expand/BiasAdd/ReadVariableOp", "shape": [1152], "dtype": "float32"}, {"name": "StatefulPartitionedCall/model_1/efficientnetb0/block6b_se_squeeze/Mean/reduction_indices", "shape": [2], "dtype": "int32"}, {"name": "StatefulPartitionedCall/model_1/efficientnetb0/block6b_se_reshape/strided_slice/stack", "shape": [1], "dtype": "int32"}, {"name": "StatefulPartitionedCall/model_1/efficientnetb0/block6b_se_reshape/strided_slice/stack_1", "shape": [1], "dtype": "int32"}, {"name": "StatefulPartitionedCall/model_1/efficientnetb0/block6b_se_reshape/strided_slice/stack_2", "shape": [1], "dtype": "int32"}, {"name": "StatefulPartitionedCall/model_1/efficientnetb0/block6b_se_reshape/Reshape/shape/1", "shape": [], "dtype": "int32"}, {"name": "StatefulPartitionedCall/model_1/efficientnetb0/block6b_se_reshape/Reshape/shape/2", "shape": [], "dtype": "int32"}, {"name": "StatefulPartitionedCall/model_1/efficientnetb0/block6b_se_reshape/Reshape/shape/3", "shape": [], "dtype": "int32"}, {"name": "StatefulPartitionedCall/model_1/efficientnetb0/block6b_se_reduce/Conv2D/ReadVariableOp", "shape": [1, 1, 1152, 48], "dtype": "float32"}, {"name": "StatefulPartitionedCall/model_1/efficientnetb0/block6b_se_reduce/BiasAdd/ReadVariableOp", "shape": [48], "dtype": "float32"}, {"name": "StatefulPartitionedCall/model_1/efficientnetb0/block6b_se_expand/Conv2D/ReadVariableOp", "shape": [1, 1, 48, 1152], "dtype": "float32"}, {"name": "StatefulPartitionedCall/model_1/efficientnetb0/block6b_se_expand/BiasAdd/ReadVariableOp", "shape": [1152], "dtype": "float32"}, {"name": "StatefulPartitionedCall/model_1/efficientnetb0/block5c_se_squeeze/Mean/reduction_indices", "shape": [2], "dtype": "int32"}, {"name": "StatefulPartitionedCall/model_1/efficientnetb0/block5c_se_reshape/strided_slice/stack", "shape": [1], "dtype": "int32"}, {"name": "StatefulPartitionedCall/model_1/efficientnetb0/block5c_se_reshape/strided_slice/stack_1", "shape": [1], "dtype": "int32"}, {"name": "StatefulPartitionedCall/model_1/efficientnetb0/block5c_se_reshape/strided_slice/stack_2", "shape": [1], "dtype": "int32"}, {"name": "StatefulPartitionedCall/model_1/efficientnetb0/block5c_se_reshape/Reshape/shape/1", "shape": [], "dtype": "int32"}, {"name": "StatefulPartitionedCall/model_1/efficientnetb0/block5c_se_reshape/Reshape/shape/2", "shape": [], "dtype": "int32"}, {"name": "StatefulPartitionedCall/model_1/efficientnetb0/block5c_se_reshape/Reshape/shape/3", "shape": [], "dtype": "int32"}, {"name": "StatefulPartitionedCall/model_1/efficientnetb0/block5c_se_reduce/Conv2D/ReadVariableOp", "shape": [1, 1, 672, 28], "dtype": "float32"}, {"name": "StatefulPartitionedCall/model_1/efficientnetb0/block5c_se_reduce/BiasAdd/ReadVariableOp", "shape": [28], "dtype": "float32"}, {"name": "StatefulPartitionedCall/model_1/efficientnetb0/block5c_se_expand/Conv2D/ReadVariableOp", "shape": [1, 1, 28, 672], "dtype": "float32"}, {"name": "StatefulPartitionedCall/model_1/efficientnetb0/block5c_se_expand/BiasAdd/ReadVariableOp", "shape": [672], "dtype": "float32"}, {"name": "StatefulPartitionedCall/model_1/efficientnetb0/block5b_se_squeeze/Mean/reduction_indices", "shape": [2], "dtype": "int32"}, {"name": "StatefulPartitionedCall/model_1/efficientnetb0/block5b_se_reshape/strided_slice/stack", "shape": [1], "dtype": "int32"}, {"name": "StatefulPartitionedCall/model_1/efficientnetb0/block5b_se_reshape/strided_slice/stack_1", "shape": [1], "dtype": "int32"}, {"name": "StatefulPartitionedCall/model_1/efficientnetb0/block5b_se_reshape/strided_slice/stack_2", "shape": [1], "dtype": "int32"}, {"name": "StatefulPartitionedCall/model_1/efficientnetb0/block5b_se_reshape/Reshape/shape/1", "shape": [], "dtype": "int32"}, {"name": "StatefulPartitionedCall/model_1/efficientnetb0/block5b_se_reshape/Reshape/shape/2", "shape": [], "dtype": "int32"}, {"name": "StatefulPartitionedCall/model_1/efficientnetb0/block5b_se_reshape/Reshape/shape/3", "shape": [], "dtype": "int32"}, {"name": "StatefulPartitionedCall/model_1/efficientnetb0/block5b_se_reduce/Conv2D/ReadVariableOp", "shape": [1, 1, 672, 28], "dtype": "float32"}, {"name": "StatefulPartitionedCall/model_1/efficientnetb0/block5b_se_reduce/BiasAdd/ReadVariableOp", "shape": [28], "dtype": "float32"}, {"name": "StatefulPartitionedCall/model_1/efficientnetb0/block5b_se_expand/Conv2D/ReadVariableOp", "shape": [1, 1, 28, 672], "dtype": "float32"}, {"name": "StatefulPartitionedCall/model_1/efficientnetb0/block5b_se_expand/BiasAdd/ReadVariableOp", "shape": [672], "dtype": "float32"}, {"name": "StatefulPartitionedCall/model_1/efficientnetb0/block4c_se_squeeze/Mean/reduction_indices", "shape": [2], "dtype": "int32"}, {"name": "StatefulPartitionedCall/model_1/efficientnetb0/block4c_se_reshape/strided_slice/stack", "shape": [1], "dtype": "int32"}, {"name": "StatefulPartitionedCall/model_1/efficientnetb0/block4c_se_reshape/strided_slice/stack_1", "shape": [1], "dtype": "int32"}, {"name": "StatefulPartitionedCall/model_1/efficientnetb0/block4c_se_reshape/strided_slice/stack_2", "shape": [1], "dtype": "int32"}, {"name": "StatefulPartitionedCall/model_1/efficientnetb0/block4c_se_reshape/Reshape/shape/1", "shape": [], "dtype": "int32"}, {"name": "StatefulPartitionedCall/model_1/efficientnetb0/block4c_se_reshape/Reshape/shape/2", "shape": [], "dtype": "int32"}, {"name": "StatefulPartitionedCall/model_1/efficientnetb0/block4c_se_reshape/Reshape/shape/3", "shape": [], "dtype": "int32"}, {"name": "StatefulPartitionedCall/model_1/efficientnetb0/block4c_se_reduce/Conv2D/ReadVariableOp", "shape": [1, 1, 480, 20], "dtype": "float32"}, {"name": "StatefulPartitionedCall/model_1/efficientnetb0/block4c_se_reduce/BiasAdd/ReadVariableOp", "shape": [20], "dtype": "float32"}, {"name": "StatefulPartitionedCall/model_1/efficientnetb0/block4c_se_expand/Conv2D/ReadVariableOp", "shape": [1, 1, 20, 480], "dtype": "float32"}, {"name": "StatefulPartitionedCall/model_1/efficientnetb0/block4c_se_expand/BiasAdd/ReadVariableOp", "shape": [480], "dtype": "float32"}, {"name": "StatefulPartitionedCall/model_1/efficientnetb0/block4b_se_squeeze/Mean/reduction_indices", "shape": [2], "dtype": "int32"}, {"name": "StatefulPartitionedCall/model_1/efficientnetb0/block4b_se_reshape/strided_slice/stack", "shape": [1], "dtype": "int32"}, {"name": "StatefulPartitionedCall/model_1/efficientnetb0/block4b_se_reshape/strided_slice/stack_1", "shape": [1], "dtype": "int32"}, {"name": "StatefulPartitionedCall/model_1/efficientnetb0/block4b_se_reshape/strided_slice/stack_2", "shape": [1], "dtype": "int32"}, {"name": "StatefulPartitionedCall/model_1/efficientnetb0/block4b_se_reshape/Reshape/shape/1", "shape": [], "dtype": "int32"}, {"name": "StatefulPartitionedCall/model_1/efficientnetb0/block4b_se_reshape/Reshape/shape/2", "shape": [], "dtype": "int32"}, {"name": "StatefulPartitionedCall/model_1/efficientnetb0/block4b_se_reshape/Reshape/shape/3", "shape": [], "dtype": "int32"}, {"name": "StatefulPartitionedCall/model_1/efficientnetb0/block4b_se_reduce/Conv2D/ReadVariableOp", "shape": [1, 1, 480, 20], "dtype": "float32"}, {"name": "StatefulPartitionedCall/model_1/efficientnetb0/block4b_se_reduce/BiasAdd/ReadVariableOp", "shape": [20], "dtype": "float32"}, {"name": "StatefulPartitionedCall/model_1/efficientnetb0/block4b_se_expand/Conv2D/ReadVariableOp", "shape": [1, 1, 20, 480], "dtype": "float32"}, {"name": "StatefulPartitionedCall/model_1/efficientnetb0/block4b_se_expand/BiasAdd/ReadVariableOp", "shape": [480], "dtype": "float32"}, {"name": "StatefulPartitionedCall/model_1/efficientnetb0/block3b_se_squeeze/Mean/reduction_indices", "shape": [2], "dtype": "int32"}, {"name": "StatefulPartitionedCall/model_1/efficientnetb0/block3b_se_reshape/strided_slice/stack", "shape": [1], "dtype": "int32"}, {"name": "StatefulPartitionedCall/model_1/efficientnetb0/block3b_se_reshape/strided_slice/stack_1", "shape": [1], "dtype": "int32"}, {"name": "StatefulPartitionedCall/model_1/efficientnetb0/block3b_se_reshape/strided_slice/stack_2", "shape": [1], "dtype": "int32"}, {"name": "StatefulPartitionedCall/model_1/efficientnetb0/block3b_se_reshape/Reshape/shape/1", "shape": [], "dtype": "int32"}, {"name": "StatefulPartitionedCall/model_1/efficientnetb0/block3b_se_reshape/Reshape/shape/2", "shape": [], "dtype": "int32"}, {"name": "StatefulPartitionedCall/model_1/efficientnetb0/block3b_se_reshape/Reshape/shape/3", "shape": [], "dtype": "int32"}, {"name": "StatefulPartitionedCall/model_1/efficientnetb0/block3b_se_reduce/Conv2D/ReadVariableOp", "shape": [1, 1, 240, 10], "dtype": "float32"}, {"name": "StatefulPartitionedCall/model_1/efficientnetb0/block3b_se_reduce/BiasAdd/ReadVariableOp", "shape": [10], "dtype": "float32"}, {"name": "StatefulPartitionedCall/model_1/efficientnetb0/block3b_se_expand/Conv2D/ReadVariableOp", "shape": [1, 1, 10, 240], "dtype": "float32"}, {"name": "StatefulPartitionedCall/model_1/efficientnetb0/block3b_se_expand/BiasAdd/ReadVariableOp", "shape": [240], "dtype": "float32"}, {"name": "StatefulPartitionedCall/model_1/efficientnetb0/block2b_se_squeeze/Mean/reduction_indices", "shape": [2], "dtype": "int32"}, {"name": "StatefulPartitionedCall/model_1/efficientnetb0/block2b_se_reshape/strided_slice/stack", "shape": [1], "dtype": "int32"}, {"name": "StatefulPartitionedCall/model_1/efficientnetb0/block2b_se_reshape/strided_slice/stack_1", "shape": [1], "dtype": "int32"}, {"name": "StatefulPartitionedCall/model_1/efficientnetb0/block2b_se_reshape/strided_slice/stack_2", "shape": [1], "dtype": "int32"}, {"name": "StatefulPartitionedCall/model_1/efficientnetb0/block2b_se_reshape/Reshape/shape/1", "shape": [], "dtype": "int32"}, {"name": "StatefulPartitionedCall/model_1/efficientnetb0/block2b_se_reshape/Reshape/shape/2", "shape": [], "dtype": "int32"}, {"name": "StatefulPartitionedCall/model_1/efficientnetb0/block2b_se_reshape/Reshape/shape/3", "shape": [], "dtype": "int32"}, {"name": "StatefulPartitionedCall/model_1/efficientnetb0/block2b_se_reduce/Conv2D/ReadVariableOp", "shape": [1, 1, 144, 6], "dtype": "float32"}, {"name": "StatefulPartitionedCall/model_1/efficientnetb0/block2b_se_reduce/BiasAdd/ReadVariableOp", "shape": [6], "dtype": "float32"}, {"name": "StatefulPartitionedCall/model_1/efficientnetb0/block2b_se_expand/Conv2D/ReadVariableOp", "shape": [1, 1, 6, 144], "dtype": "float32"}, {"name": "StatefulPartitionedCall/model_1/efficientnetb0/block2b_se_expand/BiasAdd/ReadVariableOp", "shape": [144], "dtype": "float32"}, {"name": "StatefulPartitionedCall/model_1/efficientnetb0/rescaling_1/Cast/x", "shape": [], "dtype": "float32"}, {"name": "StatefulPartitionedCall/model_1/efficientnetb0/rescaling_1/add", "shape": [1, 1, 1, 3], "dtype": "float32"}, {"name": "ConstantFolding/StatefulPartitionedCall/model_1/efficientnetb0/normalization_1/truediv_recip", "shape": [1, 1, 1, 3], "dtype": "float32"}, {"name": "StatefulPartitionedCall/model_1/efficientnetb0/stem_conv_pad/Pad/paddings", "shape": [4, 2], "dtype": "int32"}, {"name": "StatefulPartitionedCall/model_1/efficientnetb0/block1a_se_squeeze/Mean/reduction_indices", "shape": [2], "dtype": "int32"}, {"name": "StatefulPartitionedCall/model_1/efficientnetb0/block1a_se_reshape/strided_slice/stack", "shape": [1], "dtype": "int32"}, {"name": "StatefulPartitionedCall/model_1/efficientnetb0/block1a_se_reshape/strided_slice/stack_1", "shape": [1], "dtype": "int32"}, {"name": "StatefulPartitionedCall/model_1/efficientnetb0/block1a_se_reshape/strided_slice/stack_2", "shape": [1], "dtype": "int32"}, {"name": "StatefulPartitionedCall/model_1/efficientnetb0/block1a_se_reshape/Reshape/shape/1", "shape": [], "dtype": "int32"}, {"name": "StatefulPartitionedCall/model_1/efficientnetb0/block1a_se_reshape/Reshape/shape/2", "shape": [], "dtype": "int32"}, {"name": "StatefulPartitionedCall/model_1/efficientnetb0/block1a_se_reshape/Reshape/shape/3", "shape": [], "dtype": "int32"}, {"name": "StatefulPartitionedCall/model_1/efficientnetb0/block1a_se_reduce/Conv2D/ReadVariableOp", "shape": [1, 1, 32, 8], "dtype": "float32"}, {"name": "StatefulPartitionedCall/model_1/efficientnetb0/block1a_se_reduce/BiasAdd/ReadVariableOp", "shape": [8], "dtype": "float32"}, {"name": "StatefulPartitionedCall/model_1/efficientnetb0/block1a_se_expand/Conv2D/ReadVariableOp", "shape": [1, 1, 8, 32], "dtype": "float32"}, {"name": "StatefulPartitionedCall/model_1/efficientnetb0/block1a_se_expand/BiasAdd/ReadVariableOp", "shape": [32], "dtype": "float32"}, {"name": "StatefulPartitionedCall/model_1/efficientnetb0/block2a_dwconv_pad/Pad/paddings", "shape": [4, 2], "dtype": "int32"}, {"name": "StatefulPartitionedCall/model_1/efficientnetb0/block2a_se_squeeze/Mean/reduction_indices", "shape": [2], "dtype": "int32"}, {"name": "StatefulPartitionedCall/model_1/efficientnetb0/block2a_se_reshape/strided_slice/stack", "shape": [1], "dtype": "int32"}, {"name": "StatefulPartitionedCall/model_1/efficientnetb0/block2a_se_reshape/strided_slice/stack_1", "shape": [1], "dtype": "int32"}, {"name": "StatefulPartitionedCall/model_1/efficientnetb0/block2a_se_reshape/strided_slice/stack_2", "shape": [1], "dtype": "int32"}, {"name": "StatefulPartitionedCall/model_1/efficientnetb0/block2a_se_reshape/Reshape/shape/1", "shape": [], "dtype": "int32"}, {"name": "StatefulPartitionedCall/model_1/efficientnetb0/block2a_se_reshape/Reshape/shape/2", "shape": [], "dtype": "int32"}, {"name": "StatefulPartitionedCall/model_1/efficientnetb0/block2a_se_reshape/Reshape/shape/3", "shape": [], "dtype": "int32"}, {"name": "StatefulPartitionedCall/model_1/efficientnetb0/block2a_se_reduce/Conv2D/ReadVariableOp", "shape": [1, 1, 96, 4], "dtype": "float32"}, {"name": "StatefulPartitionedCall/model_1/efficientnetb0/block2a_se_reduce/BiasAdd/ReadVariableOp", "shape": [4], "dtype": "float32"}, {"name": "StatefulPartitionedCall/model_1/efficientnetb0/block2a_se_expand/Conv2D/ReadVariableOp", "shape": [1, 1, 4, 96], "dtype": "float32"}, {"name": "StatefulPartitionedCall/model_1/efficientnetb0/block2a_se_expand/BiasAdd/ReadVariableOp", "shape": [96], "dtype": "float32"}, {"name": "StatefulPartitionedCall/model_1/efficientnetb0/block3a_dwconv_pad/Pad/paddings", "shape": [4, 2], "dtype": "int32"}, {"name": "StatefulPartitionedCall/model_1/efficientnetb0/block3a_se_squeeze/Mean/reduction_indices", "shape": [2], "dtype": "int32"}, {"name": "StatefulPartitionedCall/model_1/efficientnetb0/block3a_se_reshape/strided_slice/stack", "shape": [1], "dtype": "int32"}, {"name": "StatefulPartitionedCall/model_1/efficientnetb0/block3a_se_reshape/strided_slice/stack_1", "shape": [1], "dtype": "int32"}, {"name": "StatefulPartitionedCall/model_1/efficientnetb0/block3a_se_reshape/strided_slice/stack_2", "shape": [1], "dtype": "int32"}, {"name": "StatefulPartitionedCall/model_1/efficientnetb0/block3a_se_reshape/Reshape/shape/1", "shape": [], "dtype": "int32"}, {"name": "StatefulPartitionedCall/model_1/efficientnetb0/block3a_se_reshape/Reshape/shape/2", "shape": [], "dtype": "int32"}, {"name": "StatefulPartitionedCall/model_1/efficientnetb0/block3a_se_reshape/Reshape/shape/3", "shape": [], "dtype": "int32"}, {"name": "StatefulPartitionedCall/model_1/efficientnetb0/block3a_se_reduce/Conv2D/ReadVariableOp", "shape": [1, 1, 144, 6], "dtype": "float32"}, {"name": "StatefulPartitionedCall/model_1/efficientnetb0/block3a_se_reduce/BiasAdd/ReadVariableOp", "shape": [6], "dtype": "float32"}, {"name": "StatefulPartitionedCall/model_1/efficientnetb0/block3a_se_expand/Conv2D/ReadVariableOp", "shape": [1, 1, 6, 144], "dtype": "float32"}, {"name": "StatefulPartitionedCall/model_1/efficientnetb0/block3a_se_expand/BiasAdd/ReadVariableOp", "shape": [144], "dtype": "float32"}, {"name": "StatefulPartitionedCall/model_1/efficientnetb0/block4a_dwconv_pad/Pad/paddings", "shape": [4, 2], "dtype": "int32"}, {"name": "StatefulPartitionedCall/model_1/efficientnetb0/block4a_se_squeeze/Mean/reduction_indices", "shape": [2], "dtype": "int32"}, {"name": "StatefulPartitionedCall/model_1/efficientnetb0/block4a_se_reshape/strided_slice/stack", "shape": [1], "dtype": "int32"}, {"name": "StatefulPartitionedCall/model_1/efficientnetb0/block4a_se_reshape/strided_slice/stack_1", "shape": [1], "dtype": "int32"}, {"name": "StatefulPartitionedCall/model_1/efficientnetb0/block4a_se_reshape/strided_slice/stack_2", "shape": [1], "dtype": "int32"}, {"name": "StatefulPartitionedCall/model_1/efficientnetb0/block4a_se_reshape/Reshape/shape/1", "shape": [], "dtype": "int32"}, {"name": "StatefulPartitionedCall/model_1/efficientnetb0/block4a_se_reshape/Reshape/shape/2", "shape": [], "dtype": "int32"}, {"name": "StatefulPartitionedCall/model_1/efficientnetb0/block4a_se_reshape/Reshape/shape/3", "shape": [], "dtype": "int32"}, {"name": "StatefulPartitionedCall/model_1/efficientnetb0/block4a_se_reduce/Conv2D/ReadVariableOp", "shape": [1, 1, 240, 10], "dtype": "float32"}, {"name": "StatefulPartitionedCall/model_1/efficientnetb0/block4a_se_reduce/BiasAdd/ReadVariableOp", "shape": [10], "dtype": "float32"}, {"name": "StatefulPartitionedCall/model_1/efficientnetb0/block4a_se_expand/Conv2D/ReadVariableOp", "shape": [1, 1, 10, 240], "dtype": "float32"}, {"name": "StatefulPartitionedCall/model_1/efficientnetb0/block4a_se_expand/BiasAdd/ReadVariableOp", "shape": [240], "dtype": "float32"}, {"name": "StatefulPartitionedCall/model_1/efficientnetb0/block5a_se_squeeze/Mean/reduction_indices", "shape": [2], "dtype": "int32"}, {"name": "StatefulPartitionedCall/model_1/efficientnetb0/block5a_se_reshape/strided_slice/stack", "shape": [1], "dtype": "int32"}, {"name": "StatefulPartitionedCall/model_1/efficientnetb0/block5a_se_reshape/strided_slice/stack_1", "shape": [1], "dtype": "int32"}, {"name": "StatefulPartitionedCall/model_1/efficientnetb0/block5a_se_reshape/strided_slice/stack_2", "shape": [1], "dtype": "int32"}, {"name": "StatefulPartitionedCall/model_1/efficientnetb0/block5a_se_reshape/Reshape/shape/1", "shape": [], "dtype": "int32"}, {"name": "StatefulPartitionedCall/model_1/efficientnetb0/block5a_se_reshape/Reshape/shape/2", "shape": [], "dtype": "int32"}, {"name": "StatefulPartitionedCall/model_1/efficientnetb0/block5a_se_reshape/Reshape/shape/3", "shape": [], "dtype": "int32"}, {"name": "StatefulPartitionedCall/model_1/efficientnetb0/block5a_se_reduce/Conv2D/ReadVariableOp", "shape": [1, 1, 480, 20], "dtype": "float32"}, {"name": "StatefulPartitionedCall/model_1/efficientnetb0/block5a_se_reduce/BiasAdd/ReadVariableOp", "shape": [20], "dtype": "float32"}, {"name": "StatefulPartitionedCall/model_1/efficientnetb0/block5a_se_expand/Conv2D/ReadVariableOp", "shape": [1, 1, 20, 480], "dtype": "float32"}, {"name": "StatefulPartitionedCall/model_1/efficientnetb0/block5a_se_expand/BiasAdd/ReadVariableOp", "shape": [480], "dtype": "float32"}, {"name": "StatefulPartitionedCall/model_1/efficientnetb0/block6a_dwconv_pad/Pad/paddings", "shape": [4, 2], "dtype": "int32"}, {"name": "StatefulPartitionedCall/model_1/efficientnetb0/block6a_se_squeeze/Mean/reduction_indices", "shape": [2], "dtype": "int32"}, {"name": "StatefulPartitionedCall/model_1/efficientnetb0/block6a_se_reshape/strided_slice/stack", "shape": [1], "dtype": "int32"}, {"name": "StatefulPartitionedCall/model_1/efficientnetb0/block6a_se_reshape/strided_slice/stack_1", "shape": [1], "dtype": "int32"}, {"name": "StatefulPartitionedCall/model_1/efficientnetb0/block6a_se_reshape/strided_slice/stack_2", "shape": [1], "dtype": "int32"}, {"name": "StatefulPartitionedCall/model_1/efficientnetb0/block6a_se_reshape/Reshape/shape/1", "shape": [], "dtype": "int32"}, {"name": "StatefulPartitionedCall/model_1/efficientnetb0/block6a_se_reshape/Reshape/shape/2", "shape": [], "dtype": "int32"}, {"name": "StatefulPartitionedCall/model_1/efficientnetb0/block6a_se_reshape/Reshape/shape/3", "shape": [], "dtype": "int32"}, {"name": "StatefulPartitionedCall/model_1/efficientnetb0/block6a_se_reduce/Conv2D/ReadVariableOp", "shape": [1, 1, 672, 28], "dtype": "float32"}, {"name": "StatefulPartitionedCall/model_1/efficientnetb0/block6a_se_reduce/BiasAdd/ReadVariableOp", "shape": [28], "dtype": "float32"}, {"name": "StatefulPartitionedCall/model_1/efficientnetb0/block6a_se_expand/Conv2D/ReadVariableOp", "shape": [1, 1, 28, 672], "dtype": "float32"}, {"name": "StatefulPartitionedCall/model_1/efficientnetb0/block6a_se_expand/BiasAdd/ReadVariableOp", "shape": [672], "dtype": "float32"}, {"name": "StatefulPartitionedCall/model_1/efficientnetb0/block7a_se_squeeze/Mean/reduction_indices", "shape": [2], "dtype": "int32"}, {"name": "StatefulPartitionedCall/model_1/efficientnetb0/block7a_se_reshape/strided_slice/stack", "shape": [1], "dtype": "int32"}, {"name": "StatefulPartitionedCall/model_1/efficientnetb0/block7a_se_reshape/strided_slice/stack_1", "shape": [1], "dtype": "int32"}, {"name": "StatefulPartitionedCall/model_1/efficientnetb0/block7a_se_reshape/strided_slice/stack_2", "shape": [1], "dtype": "int32"}, {"name": "StatefulPartitionedCall/model_1/efficientnetb0/block7a_se_reshape/Reshape/shape/1", "shape": [], "dtype": "int32"}, {"name": "StatefulPartitionedCall/model_1/efficientnetb0/block7a_se_reshape/Reshape/shape/2", "shape": [], "dtype": "int32"}, {"name": "StatefulPartitionedCall/model_1/efficientnetb0/block7a_se_reshape/Reshape/shape/3", "shape": [], "dtype": "int32"}, {"name": "StatefulPartitionedCall/model_1/efficientnetb0/block7a_se_reduce/Conv2D/ReadVariableOp", "shape": [1, 1, 1152, 48], "dtype": "float32"}, {"name": "StatefulPartitionedCall/model_1/efficientnetb0/block7a_se_reduce/BiasAdd/ReadVariableOp", "shape": [48], "dtype": "float32"}, {"name": "StatefulPartitionedCall/model_1/efficientnetb0/block7a_se_expand/Conv2D/ReadVariableOp", "shape": [1, 1, 48, 1152], "dtype": "float32"}, {"name": "StatefulPartitionedCall/model_1/efficientnetb0/block7a_se_expand/BiasAdd/ReadVariableOp", "shape": [1152], "dtype": "float32"}, {"name": "StatefulPartitionedCall/model_1/global_average_pooling2d_1/Mean/reduction_indices", "shape": [2], "dtype": "int32"}, {"name": "StatefulPartitionedCall/sequential/dense/MatMul/ReadVariableOp", "shape": [1280, 128], "dtype": "float32"}, {"name": "StatefulPartitionedCall/sequential/dense/BiasAdd/ReadVariableOp", "shape": [128], "dtype": "float32"}, {"name": "StatefulPartitionedCall/sequential/dense_1/MatMul/ReadVariableOp", "shape": [128, 12], "dtype": "float32"}, {"name": "StatefulPartitionedCall/sequential/dense_1/BiasAdd/ReadVariableOp", "shape": [12], "dtype": "float32"}, {"name": "StatefulPartitionedCall/model_1/efficientnetb0/stem_conv/Conv2D_weights", "shape": [3, 3, 3, 32], "dtype": "float32"}, {"name": "StatefulPartitionedCall/model_1/efficientnetb0/stem_conv/Conv2D_bn_offset", "shape": [32], "dtype": "float32"}, {"name": "StatefulPartitionedCall/model_1/efficientnetb0/block1a_dwconv/depthwise_weights", "shape": [3, 3, 32, 1], "dtype": "float32"}, {"name": "StatefulPartitionedCall/model_1/efficientnetb0/block1a_dwconv/depthwise_bn_offset", "shape": [32], "dtype": "float32"}, {"name": "StatefulPartitionedCall/model_1/efficientnetb0/block6d_dwconv/depthwise_weights", "shape": [5, 5, 1152, 1], "dtype": "float32"}, {"name": "StatefulPartitionedCall/model_1/efficientnetb0/block1a_project_conv/Conv2D_weights", "shape": [1, 1, 32, 16], "dtype": "float32"}, {"name": "StatefulPartitionedCall/model_1/efficientnetb0/block6d_dwconv/depthwise_bn_offset", "shape": [1152], "dtype": "float32"}, {"name": "StatefulPartitionedCall/model_1/efficientnetb0/block1a_project_conv/Conv2D_bn_offset", "shape": [16], "dtype": "float32"}, {"name": "StatefulPartitionedCall/model_1/efficientnetb0/block2a_expand_conv/Conv2D_weights", "shape": [1, 1, 16, 96], "dtype": "float32"}, {"name": "StatefulPartitionedCall/model_1/efficientnetb0/block2a_expand_conv/Conv2D_bn_offset", "shape": [96], "dtype": "float32"}, {"name": "StatefulPartitionedCall/model_1/efficientnetb0/block2a_dwconv/depthwise_weights", "shape": [3, 3, 96, 1], "dtype": "float32"}, {"name": "StatefulPartitionedCall/model_1/efficientnetb0/block2a_dwconv/depthwise_bn_offset", "shape": [96], "dtype": "float32"}, {"name": "StatefulPartitionedCall/model_1/efficientnetb0/block2a_project_conv/Conv2D_weights", "shape": [1, 1, 96, 24], "dtype": "float32"}, {"name": "StatefulPartitionedCall/model_1/efficientnetb0/block2a_project_conv/Conv2D_bn_offset", "shape": [24], "dtype": "float32"}, {"name": "StatefulPartitionedCall/model_1/efficientnetb0/block2b_expand_conv/Conv2D_weights", "shape": [1, 1, 24, 144], "dtype": "float32"}, {"name": "StatefulPartitionedCall/model_1/efficientnetb0/block2b_expand_conv/Conv2D_bn_offset", "shape": [144], "dtype": "float32"}, {"name": "StatefulPartitionedCall/model_1/efficientnetb0/block2b_dwconv/depthwise_weights", "shape": [3, 3, 144, 1], "dtype": "float32"}, {"name": "StatefulPartitionedCall/model_1/efficientnetb0/block2b_dwconv/depthwise_bn_offset", "shape": [144], "dtype": "float32"}, {"name": "StatefulPartitionedCall/model_1/efficientnetb0/block2b_project_conv/Conv2D_weights", "shape": [1, 1, 144, 24], "dtype": "float32"}, {"name": "StatefulPartitionedCall/model_1/efficientnetb0/block2b_project_conv/Conv2D_bn_offset", "shape": [24], "dtype": "float32"}, {"name": "StatefulPartitionedCall/model_1/efficientnetb0/block3a_expand_conv/Conv2D_weights", "shape": [1, 1, 24, 144], "dtype": "float32"}, {"name": "StatefulPartitionedCall/model_1/efficientnetb0/block3a_expand_conv/Conv2D_bn_offset", "shape": [144], "dtype": "float32"}, {"name": "StatefulPartitionedCall/model_1/efficientnetb0/block3a_dwconv/depthwise_weights", "shape": [5, 5, 144, 1], "dtype": "float32"}, {"name": "StatefulPartitionedCall/model_1/efficientnetb0/block3a_dwconv/depthwise_bn_offset", "shape": [144], "dtype": "float32"}, {"name": "StatefulPartitionedCall/model_1/efficientnetb0/block3a_project_conv/Conv2D_weights", "shape": [1, 1, 144, 40], "dtype": "float32"}, {"name": "StatefulPartitionedCall/model_1/efficientnetb0/block3a_project_conv/Conv2D_bn_offset", "shape": [40], "dtype": "float32"}, {"name": "StatefulPartitionedCall/model_1/efficientnetb0/block3b_expand_conv/Conv2D_weights", "shape": [1, 1, 40, 240], "dtype": "float32"}, {"name": "StatefulPartitionedCall/model_1/efficientnetb0/block3b_expand_conv/Conv2D_bn_offset", "shape": [240], "dtype": "float32"}, {"name": "StatefulPartitionedCall/model_1/efficientnetb0/block3b_dwconv/depthwise_weights", "shape": [5, 5, 240, 1], "dtype": "float32"}, {"name": "StatefulPartitionedCall/model_1/efficientnetb0/block3b_dwconv/depthwise_bn_offset", "shape": [240], "dtype": "float32"}, {"name": "StatefulPartitionedCall/model_1/efficientnetb0/block3b_project_conv/Conv2D_weights", "shape": [1, 1, 240, 40], "dtype": "float32"}, {"name": "StatefulPartitionedCall/model_1/efficientnetb0/block3b_project_conv/Conv2D_bn_offset", "shape": [40], "dtype": "float32"}, {"name": "StatefulPartitionedCall/model_1/efficientnetb0/block4a_expand_conv/Conv2D_weights", "shape": [1, 1, 40, 240], "dtype": "float32"}, {"name": "StatefulPartitionedCall/model_1/efficientnetb0/block6d_project_conv/Conv2D_weights", "shape": [1, 1, 1152, 192], "dtype": "float32"}, {"name": "StatefulPartitionedCall/model_1/efficientnetb0/block4a_expand_conv/Conv2D_bn_offset", "shape": [240], "dtype": "float32"}, {"name": "StatefulPartitionedCall/model_1/efficientnetb0/block4a_dwconv/depthwise_weights", "shape": [3, 3, 240, 1], "dtype": "float32"}, {"name": "StatefulPartitionedCall/model_1/efficientnetb0/block4a_dwconv/depthwise_bn_offset", "shape": [240], "dtype": "float32"}, {"name": "StatefulPartitionedCall/model_1/efficientnetb0/block6d_project_conv/Conv2D_bn_offset", "shape": [192], "dtype": "float32"}, {"name": "StatefulPartitionedCall/model_1/efficientnetb0/block4a_project_conv/Conv2D_weights", "shape": [1, 1, 240, 80], "dtype": "float32"}, {"name": "StatefulPartitionedCall/model_1/efficientnetb0/block4a_project_conv/Conv2D_bn_offset", "shape": [80], "dtype": "float32"}, {"name": "StatefulPartitionedCall/model_1/efficientnetb0/block4b_expand_conv/Conv2D_weights", "shape": [1, 1, 80, 480], "dtype": "float32"}, {"name": "StatefulPartitionedCall/model_1/efficientnetb0/block4b_expand_conv/Conv2D_bn_offset", "shape": [480], "dtype": "float32"}, {"name": "StatefulPartitionedCall/model_1/efficientnetb0/block4b_dwconv/depthwise_weights", "shape": [3, 3, 480, 1], "dtype": "float32"}, {"name": "StatefulPartitionedCall/model_1/efficientnetb0/block4b_dwconv/depthwise_bn_offset", "shape": [480], "dtype": "float32"}, {"name": "StatefulPartitionedCall/model_1/efficientnetb0/block7a_expand_conv/Conv2D_weights", "shape": [1, 1, 192, 1152], "dtype": "float32"}, {"name": "StatefulPartitionedCall/model_1/efficientnetb0/block4b_project_conv/Conv2D_weights", "shape": [1, 1, 480, 80], "dtype": "float32"}, {"name": "StatefulPartitionedCall/model_1/efficientnetb0/block7a_expand_conv/Conv2D_bn_offset", "shape": [1152], "dtype": "float32"}, {"name": "StatefulPartitionedCall/model_1/efficientnetb0/block4b_project_conv/Conv2D_bn_offset", "shape": [80], "dtype": "float32"}, {"name": "StatefulPartitionedCall/model_1/efficientnetb0/block4c_expand_conv/Conv2D_weights", "shape": [1, 1, 80, 480], "dtype": "float32"}, {"name": "StatefulPartitionedCall/model_1/efficientnetb0/block4c_expand_conv/Conv2D_bn_offset", "shape": [480], "dtype": "float32"}, {"name": "StatefulPartitionedCall/model_1/efficientnetb0/block4c_dwconv/depthwise_weights", "shape": [3, 3, 480, 1], "dtype": "float32"}, {"name": "StatefulPartitionedCall/model_1/efficientnetb0/block4c_dwconv/depthwise_bn_offset", "shape": [480], "dtype": "float32"}, {"name": "StatefulPartitionedCall/model_1/efficientnetb0/block4c_project_conv/Conv2D_weights", "shape": [1, 1, 480, 80], "dtype": "float32"}, {"name": "StatefulPartitionedCall/model_1/efficientnetb0/block7a_dwconv/depthwise_weights", "shape": [3, 3, 1152, 1], "dtype": "float32"}, {"name": "StatefulPartitionedCall/model_1/efficientnetb0/block4c_project_conv/Conv2D_bn_offset", "shape": [80], "dtype": "float32"}, {"name": "StatefulPartitionedCall/model_1/efficientnetb0/block5a_expand_conv/Conv2D_weights", "shape": [1, 1, 80, 480], "dtype": "float32"}, {"name": "StatefulPartitionedCall/model_1/efficientnetb0/block5a_expand_conv/Conv2D_bn_offset", "shape": [480], "dtype": "float32"}, {"name": "StatefulPartitionedCall/model_1/efficientnetb0/block5a_dwconv/depthwise_weights", "shape": [5, 5, 480, 1], "dtype": "float32"}, {"name": "StatefulPartitionedCall/model_1/efficientnetb0/block5a_dwconv/depthwise_bn_offset", "shape": [480], "dtype": "float32"}, {"name": "StatefulPartitionedCall/model_1/efficientnetb0/block7a_dwconv/depthwise_bn_offset", "shape": [1152], "dtype": "float32"}, {"name": "StatefulPartitionedCall/model_1/efficientnetb0/block5a_project_conv/Conv2D_weights", "shape": [1, 1, 480, 112], "dtype": "float32"}, {"name": "StatefulPartitionedCall/model_1/efficientnetb0/block5a_project_conv/Conv2D_bn_offset", "shape": [112], "dtype": "float32"}, {"name": "StatefulPartitionedCall/model_1/efficientnetb0/block5b_expand_conv/Conv2D_weights", "shape": [1, 1, 112, 672], "dtype": "float32"}, {"name": "StatefulPartitionedCall/model_1/efficientnetb0/block5b_expand_conv/Conv2D_bn_offset", "shape": [672], "dtype": "float32"}, {"name": "StatefulPartitionedCall/model_1/efficientnetb0/block5b_dwconv/depthwise_weights", "shape": [5, 5, 672, 1], "dtype": "float32"}, {"name": "StatefulPartitionedCall/model_1/efficientnetb0/block5b_dwconv/depthwise_bn_offset", "shape": [672], "dtype": "float32"}, {"name": "StatefulPartitionedCall/model_1/efficientnetb0/block5b_project_conv/Conv2D_weights", "shape": [1, 1, 672, 112], "dtype": "float32"}, {"name": "StatefulPartitionedCall/model_1/efficientnetb0/block5b_project_conv/Conv2D_bn_offset", "shape": [112], "dtype": "float32"}, {"name": "StatefulPartitionedCall/model_1/efficientnetb0/block5c_expand_conv/Conv2D_weights", "shape": [1, 1, 112, 672], "dtype": "float32"}, {"name": "StatefulPartitionedCall/model_1/efficientnetb0/block5c_expand_conv/Conv2D_bn_offset", "shape": [672], "dtype": "float32"}, {"name": "StatefulPartitionedCall/model_1/efficientnetb0/block5c_dwconv/depthwise_weights", "shape": [5, 5, 672, 1], "dtype": "float32"}, {"name": "StatefulPartitionedCall/model_1/efficientnetb0/block5c_dwconv/depthwise_bn_offset", "shape": [672], "dtype": "float32"}, {"name": "StatefulPartitionedCall/model_1/efficientnetb0/block5c_project_conv/Conv2D_weights", "shape": [1, 1, 672, 112], "dtype": "float32"}, {"name": "StatefulPartitionedCall/model_1/efficientnetb0/block5c_project_conv/Conv2D_bn_offset", "shape": [112], "dtype": "float32"}, {"name": "StatefulPartitionedCall/model_1/efficientnetb0/block6a_expand_conv/Conv2D_weights", "shape": [1, 1, 112, 672], "dtype": "float32"}, {"name": "StatefulPartitionedCall/model_1/efficientnetb0/block6a_expand_conv/Conv2D_bn_offset", "shape": [672], "dtype": "float32"}, {"name": "StatefulPartitionedCall/model_1/efficientnetb0/block6a_dwconv/depthwise_weights", "shape": [5, 5, 672, 1], "dtype": "float32"}, {"name": "StatefulPartitionedCall/model_1/efficientnetb0/block6a_dwconv/depthwise_bn_offset", "shape": [672], "dtype": "float32"}, {"name": "StatefulPartitionedCall/model_1/efficientnetb0/block6a_project_conv/Conv2D_weights", "shape": [1, 1, 672, 192], "dtype": "float32"}, {"name": "StatefulPartitionedCall/model_1/efficientnetb0/block6a_project_conv/Conv2D_bn_offset", "shape": [192], "dtype": "float32"}, {"name": "StatefulPartitionedCall/model_1/efficientnetb0/block6b_expand_conv/Conv2D_weights", "shape": [1, 1, 192, 1152], "dtype": "float32"}, {"name": "StatefulPartitionedCall/model_1/efficientnetb0/block6b_expand_conv/Conv2D_bn_offset", "shape": [1152], "dtype": "float32"}, {"name": "StatefulPartitionedCall/model_1/efficientnetb0/block6b_dwconv/depthwise_weights", "shape": [5, 5, 1152, 1], "dtype": "float32"}, {"name": "StatefulPartitionedCall/model_1/efficientnetb0/block6b_dwconv/depthwise_bn_offset", "shape": [1152], "dtype": "float32"}, {"name": "StatefulPartitionedCall/model_1/efficientnetb0/block7a_project_conv/Conv2D_weights", "shape": [1, 1, 1152, 320], "dtype": "float32"}, {"name": "StatefulPartitionedCall/model_1/efficientnetb0/block6b_project_conv/Conv2D_weights", "shape": [1, 1, 1152, 192], "dtype": "float32"}, {"name": "StatefulPartitionedCall/model_1/efficientnetb0/block6b_project_conv/Conv2D_bn_offset", "shape": [192], "dtype": "float32"}, {"name": "StatefulPartitionedCall/model_1/efficientnetb0/block6c_expand_conv/Conv2D_weights", "shape": [1, 1, 192, 1152], "dtype": "float32"}, {"name": "StatefulPartitionedCall/model_1/efficientnetb0/block7a_project_conv/Conv2D_bn_offset", "shape": [320], "dtype": "float32"}, {"name": "StatefulPartitionedCall/model_1/efficientnetb0/block6c_expand_conv/Conv2D_bn_offset", "shape": [1152], "dtype": "float32"}, {"name": "StatefulPartitionedCall/model_1/efficientnetb0/block6c_dwconv/depthwise_weights", "shape": [5, 5, 1152, 1], "dtype": "float32"}, {"name": "StatefulPartitionedCall/model_1/efficientnetb0/block6c_dwconv/depthwise_bn_offset", "shape": [1152], "dtype": "float32"}, {"name": "StatefulPartitionedCall/model_1/efficientnetb0/top_conv/Conv2D_weights", "shape": [1, 1, 320, 1280], "dtype": "float32"}, {"name": "StatefulPartitionedCall/model_1/efficientnetb0/block6c_project_conv/Conv2D_weights", "shape": [1, 1, 1152, 192], "dtype": "float32"}, {"name": "StatefulPartitionedCall/model_1/efficientnetb0/block6c_project_conv/Conv2D_bn_offset", "shape": [192], "dtype": "float32"}, {"name": "StatefulPartitionedCall/model_1/efficientnetb0/block6d_expand_conv/Conv2D_weights", "shape": [1, 1, 192, 1152], "dtype": "float32"}, {"name": "StatefulPartitionedCall/model_1/efficientnetb0/top_conv/Conv2D_bn_offset", "shape": [1280], "dtype": "float32"}, {"name": "StatefulPartitionedCall/model_1/efficientnetb0/block6d_expand_conv/Conv2D_bn_offset", "shape": [1152], "dtype": "float32"}]}]}